layer {
  name: "data"
  type: "Input"
  top: "data"
  input_param {
    shape {
      dim: 1
      dim: 3
      dim: 416
      dim: 416
    }
  }
}
layer {
  name: "conv1"
  type: "Convolution"
  bottom: "data"
  top: "conv1"
  convolution_param {
    num_output: 64
    bias_term: false
    pad: 1
    kernel_size: 3
    stride: 2
  }
}
layer {
  name: "bn2"
  type: "BatchNorm"
  bottom: "conv1"
  top: "conv1"
  batch_norm_param {
    moving_average_fraction: 0.899999976158
    eps: 9.99999974738e-06
  }
}
layer {
  name: "scale2"
  type: "Scale"
  bottom: "conv1"
  top: "conv1"
  scale_param {
    bias_term: true
  }
}
layer {
  name: "relu3"
  type: "ReLU"
  bottom: "conv1"
  top: "conv1"
}
layer {
  name: "conv4"
  type: "Convolution"
  bottom: "conv1"
  top: "conv4"
  convolution_param {
    num_output: 64
    bias_term: false
    pad: 1
    kernel_size: 3
    stride: 1
  }
}
layer {
  name: "bn5"
  type: "BatchNorm"
  bottom: "conv4"
  top: "conv4"
  batch_norm_param {
    moving_average_fraction: 0.899999976158
    eps: 9.99999974738e-06
  }
}
layer {
  name: "scale5"
  type: "Scale"
  bottom: "conv4"
  top: "conv4"
  scale_param {
    bias_term: true
  }
}
layer {
  name: "relu6"
  type: "ReLU"
  bottom: "conv4"
  top: "conv4"
}
layer {
  name: "conv7"
  type: "Convolution"
  bottom: "conv4"
  top: "conv7"
  convolution_param {
    num_output: 128
    bias_term: false
    pad: 1
    kernel_size: 3
    stride: 1
  }
}
layer {
  name: "bn8"
  type: "BatchNorm"
  bottom: "conv7"
  top: "conv7"
  batch_norm_param {
    moving_average_fraction: 0.899999976158
    eps: 9.99999974738e-06
  }
}
layer {
  name: "scale8"
  type: "Scale"
  bottom: "conv7"
  top: "conv7"
  scale_param {
    bias_term: true
  }
}
layer {
  name: "relu9"
  type: "ReLU"
  bottom: "conv7"
  top: "conv7"
}
layer {
  name: "pool10"
  type: "Pooling"
  bottom: "conv7"
  top: "pool10"
  pooling_param {
    pool: MAX
    kernel_size: 3
    stride: 2
    pad: 1
    round_mode: FLOOR
  }
}
layer {
  name: "conv11"
  type: "Convolution"
  bottom: "pool10"
  top: "conv11"
  convolution_param {
    num_output: 64
    bias_term: false
    pad: 0
    kernel_size: 1
    stride: 1
  }
}
layer {
  name: "bn12"
  type: "BatchNorm"
  bottom: "conv11"
  top: "conv11"
  batch_norm_param {
    moving_average_fraction: 0.899999976158
    eps: 9.99999974738e-06
  }
}
layer {
  name: "scale12"
  type: "Scale"
  bottom: "conv11"
  top: "conv11"
  scale_param {
    bias_term: true
  }
}
layer {
  name: "relu13"
  type: "ReLU"
  bottom: "conv11"
  top: "conv11"
}
layer {
  name: "conv14"
  type: "Convolution"
  bottom: "conv11"
  top: "conv14"
  convolution_param {
    num_output: 128
    bias_term: false
    pad: 1
    kernel_size: 3
    group: 2
    stride: 1
  }
}
layer {
  name: "bn15"
  type: "BatchNorm"
  bottom: "conv14"
  top: "conv14"
  batch_norm_param {
    moving_average_fraction: 0.899999976158
    eps: 9.99999974738e-06
  }
}
layer {
  name: "scale15"
  type: "Scale"
  bottom: "conv14"
  top: "conv14"
  scale_param {
    bias_term: true
  }
}
layer {
  name: "relu16"
  type: "ReLU"
  bottom: "conv14"
  top: "conv14"
}
layer {
  name: "slice17"
  type: "Slice"
  bottom: "conv14"
  top: "slice17-0"
  top: "slice17-1"
  slice_param {
    slice_point: 64
    axis: 1
  }
}
layer {
  name: "add18"
  type: "Eltwise"
  bottom: "slice17-0"
  bottom: "slice17-1"
  top: "add18"
  eltwise_param {
    operation: SUM
  }
}
layer {
  name: "pool19"
  type: "Pooling"
  bottom: "add18"
  top: "pool19"
  pooling_param {
    pool: AVE
    global_pooling: true
  }
}
layer {
  name: "conv20"
  type: "Convolution"
  bottom: "pool19"
  top: "conv20"
  convolution_param {
    num_output: 32
    bias_term: true
    pad: 0
    kernel_size: 1
    stride: 1
  }
}
layer {
  name: "bn21"
  type: "BatchNorm"
  bottom: "conv20"
  top: "conv20"
  batch_norm_param {
    moving_average_fraction: 0.899999976158
    eps: 9.99999974738e-06
  }
}
layer {
  name: "scale21"
  type: "Scale"
  bottom: "conv20"
  top: "conv20"
  scale_param {
    bias_term: true
  }
}
layer {
  name: "relu22"
  type: "ReLU"
  bottom: "conv20"
  top: "conv20"
}
layer {
  name: "conv23"
  type: "Convolution"
  bottom: "conv20"
  top: "conv23"
  convolution_param {
    num_output: 128
    bias_term: true
    pad: 0
    kernel_size: 1
    stride: 1
  }
}
layer {
  name: "reshape25"
  type: "Reshape"
  bottom: "conv23"
  top: "reshape25"
  reshape_param {
    shape {
      dim: 0
      dim: 1
      dim: 2
      dim: -1
    }
  }
}
layer {
  name: "perm26"
  type: "Permute"
  bottom: "reshape25"
  top: "perm26"
  permute_param {
    order: 0
    order: 2
    order: 1
    order: 3
  }
}
layer {
  name: "softmax27"
  type: "Softmax"
  bottom: "perm26"
  top: "softmax27"
  softmax_param {
    axis: 1
  }
}
layer {
  name: "reshape29"
  type: "Reshape"
  bottom: "softmax27"
  top: "reshape29"
  reshape_param {
    shape {
      dim: 0
      dim: -1
    }
  }
}
layer {
  name: "slice30"
  type: "Slice"
  bottom: "reshape29"
  top: "slice30-0"
  top: "slice30-1"
  slice_param {
    slice_point: 64
    axis: 1
  }
}
layer {
  name: "mul31"
  type: "Scale"
  bottom: "slice17-0"
  bottom: "slice30-0"
  top: "mul31"
  scale_param {
    axis: 0
    bias_term: false
  }
}
layer {
  name: "mul32"
  type: "Scale"
  bottom: "slice17-1"
  bottom: "slice30-1"
  top: "mul32"
  scale_param {
    axis: 0
    bias_term: false
  }
}
layer {
  name: "add33"
  type: "Eltwise"
  bottom: "mul31"
  bottom: "mul32"
  top: "add33"
  eltwise_param {
    operation: SUM
  }
}
layer {
  name: "conv34"
  type: "Convolution"
  bottom: "add33"
  top: "conv34"
  convolution_param {
    num_output: 256
    bias_term: false
    pad: 0
    kernel_size: 1
    stride: 1
  }
}
layer {
  name: "bn35"
  type: "BatchNorm"
  bottom: "conv34"
  top: "conv34"
  batch_norm_param {
    moving_average_fraction: 0.899999976158
    eps: 9.99999974738e-06
  }
}
layer {
  name: "scale35"
  type: "Scale"
  bottom: "conv34"
  top: "conv34"
  scale_param {
    bias_term: true
  }
}
layer {
  name: "pool36"
  type: "Pooling"
  bottom: "pool10"
  top: "pool36"
  pooling_param {
    pool: AVE
    kernel_size: 1
    stride: 1
    pad: 0
    round_mode: FLOOR
  }
}
layer {
  name: "conv37"
  type: "Convolution"
  bottom: "pool36"
  top: "conv37"
  convolution_param {
    num_output: 256
    bias_term: false
    pad: 0
    kernel_size: 1
    stride: 1
  }
}
layer {
  name: "bn38"
  type: "BatchNorm"
  bottom: "conv37"
  top: "conv37"
  batch_norm_param {
    moving_average_fraction: 0.899999976158
    eps: 9.99999974738e-06
  }
}
layer {
  name: "scale38"
  type: "Scale"
  bottom: "conv37"
  top: "conv37"
  scale_param {
    bias_term: true
  }
}
layer {
  name: "add39"
  type: "Eltwise"
  bottom: "conv34"
  bottom: "conv37"
  top: "add39"
  eltwise_param {
    operation: SUM
  }
}
layer {
  name: "relu40"
  type: "ReLU"
  bottom: "add39"
  top: "add39"
}
layer {
  name: "conv41"
  type: "Convolution"
  bottom: "add39"
  top: "conv41"
  convolution_param {
    num_output: 64
    bias_term: false
    pad: 0
    kernel_size: 1
    stride: 1
  }
}
layer {
  name: "bn42"
  type: "BatchNorm"
  bottom: "conv41"
  top: "conv41"
  batch_norm_param {
    moving_average_fraction: 0.899999976158
    eps: 9.99999974738e-06
  }
}
layer {
  name: "scale42"
  type: "Scale"
  bottom: "conv41"
  top: "conv41"
  scale_param {
    bias_term: true
  }
}
layer {
  name: "relu43"
  type: "ReLU"
  bottom: "conv41"
  top: "conv41"
}
layer {
  name: "conv44"
  type: "Convolution"
  bottom: "conv41"
  top: "conv44"
  convolution_param {
    num_output: 128
    bias_term: false
    pad: 1
    kernel_size: 3
    group: 2
    stride: 1
  }
}
layer {
  name: "bn45"
  type: "BatchNorm"
  bottom: "conv44"
  top: "conv44"
  batch_norm_param {
    moving_average_fraction: 0.899999976158
    eps: 9.99999974738e-06
  }
}
layer {
  name: "scale45"
  type: "Scale"
  bottom: "conv44"
  top: "conv44"
  scale_param {
    bias_term: true
  }
}
layer {
  name: "relu46"
  type: "ReLU"
  bottom: "conv44"
  top: "conv44"
}
layer {
  name: "slice47"
  type: "Slice"
  bottom: "conv44"
  top: "slice47-0"
  top: "slice47-1"
  slice_param {
    slice_point: 64
    axis: 1
  }
}
layer {
  name: "add48"
  type: "Eltwise"
  bottom: "slice47-0"
  bottom: "slice47-1"
  top: "add48"
  eltwise_param {
    operation: SUM
  }
}
layer {
  name: "pool49"
  type: "Pooling"
  bottom: "add48"
  top: "pool49"
  pooling_param {
    pool: AVE
    global_pooling: true
  }
}
layer {
  name: "conv50"
  type: "Convolution"
  bottom: "pool49"
  top: "conv50"
  convolution_param {
    num_output: 32
    bias_term: true
    pad: 0
    kernel_size: 1
    stride: 1
  }
}
layer {
  name: "bn51"
  type: "BatchNorm"
  bottom: "conv50"
  top: "conv50"
  batch_norm_param {
    moving_average_fraction: 0.899999976158
    eps: 9.99999974738e-06
  }
}
layer {
  name: "scale51"
  type: "Scale"
  bottom: "conv50"
  top: "conv50"
  scale_param {
    bias_term: true
  }
}
layer {
  name: "relu52"
  type: "ReLU"
  bottom: "conv50"
  top: "conv50"
}
layer {
  name: "conv53"
  type: "Convolution"
  bottom: "conv50"
  top: "conv53"
  convolution_param {
    num_output: 128
    bias_term: true
    pad: 0
    kernel_size: 1
    stride: 1
  }
}
layer {
  name: "reshape55"
  type: "Reshape"
  bottom: "conv53"
  top: "reshape55"
  reshape_param {
    shape {
      dim: 0
      dim: 1
      dim: 2
      dim: -1
    }
  }
}
layer {
  name: "perm56"
  type: "Permute"
  bottom: "reshape55"
  top: "perm56"
  permute_param {
    order: 0
    order: 2
    order: 1
    order: 3
  }
}
layer {
  name: "softmax57"
  type: "Softmax"
  bottom: "perm56"
  top: "softmax57"
  softmax_param {
    axis: 1
  }
}
layer {
  name: "reshape59"
  type: "Reshape"
  bottom: "softmax57"
  top: "reshape59"
  reshape_param {
    shape {
      dim: 0
      dim: -1
    }
  }
}
layer {
  name: "slice60"
  type: "Slice"
  bottom: "reshape59"
  top: "slice60-0"
  top: "slice60-1"
  slice_param {
    slice_point: 64
    axis: 1
  }
}
layer {
  name: "mul61"
  type: "Scale"
  bottom: "slice47-0"
  bottom: "slice60-0"
  top: "mul61"
  scale_param {
    axis: 0
    bias_term: false
  }
}
layer {
  name: "mul62"
  type: "Scale"
  bottom: "slice47-1"
  bottom: "slice60-1"
  top: "mul62"
  scale_param {
    axis: 0
    bias_term: false
  }
}
layer {
  name: "add63"
  type: "Eltwise"
  bottom: "mul61"
  bottom: "mul62"
  top: "add63"
  eltwise_param {
    operation: SUM
  }
}
layer {
  name: "conv64"
  type: "Convolution"
  bottom: "add63"
  top: "conv64"
  convolution_param {
    num_output: 256
    bias_term: false
    pad: 0
    kernel_size: 1
    stride: 1
  }
}
layer {
  name: "bn65"
  type: "BatchNorm"
  bottom: "conv64"
  top: "conv64"
  batch_norm_param {
    moving_average_fraction: 0.899999976158
    eps: 9.99999974738e-06
  }
}
layer {
  name: "scale65"
  type: "Scale"
  bottom: "conv64"
  top: "conv64"
  scale_param {
    bias_term: true
  }
}
layer {
  name: "add66"
  type: "Eltwise"
  bottom: "conv64"
  bottom: "add39"
  top: "add66"
  eltwise_param {
    operation: SUM
  }
}
layer {
  name: "relu67"
  type: "ReLU"
  bottom: "add66"
  top: "add66"
}
layer {
  name: "conv68"
  type: "Convolution"
  bottom: "add66"
  top: "conv68"
  convolution_param {
    num_output: 64
    bias_term: false
    pad: 0
    kernel_size: 1
    stride: 1
  }
}
layer {
  name: "bn69"
  type: "BatchNorm"
  bottom: "conv68"
  top: "conv68"
  batch_norm_param {
    moving_average_fraction: 0.899999976158
    eps: 9.99999974738e-06
  }
}
layer {
  name: "scale69"
  type: "Scale"
  bottom: "conv68"
  top: "conv68"
  scale_param {
    bias_term: true
  }
}
layer {
  name: "relu70"
  type: "ReLU"
  bottom: "conv68"
  top: "conv68"
}
layer {
  name: "conv71"
  type: "Convolution"
  bottom: "conv68"
  top: "conv71"
  convolution_param {
    num_output: 128
    bias_term: false
    pad: 1
    kernel_size: 3
    group: 2
    stride: 1
  }
}
layer {
  name: "bn72"
  type: "BatchNorm"
  bottom: "conv71"
  top: "conv71"
  batch_norm_param {
    moving_average_fraction: 0.899999976158
    eps: 9.99999974738e-06
  }
}
layer {
  name: "scale72"
  type: "Scale"
  bottom: "conv71"
  top: "conv71"
  scale_param {
    bias_term: true
  }
}
layer {
  name: "relu73"
  type: "ReLU"
  bottom: "conv71"
  top: "conv71"
}
layer {
  name: "slice74"
  type: "Slice"
  bottom: "conv71"
  top: "slice74-0"
  top: "slice74-1"
  slice_param {
    slice_point: 64
    axis: 1
  }
}
layer {
  name: "add75"
  type: "Eltwise"
  bottom: "slice74-0"
  bottom: "slice74-1"
  top: "add75"
  eltwise_param {
    operation: SUM
  }
}
layer {
  name: "pool76"
  type: "Pooling"
  bottom: "add75"
  top: "pool76"
  pooling_param {
    pool: AVE
    global_pooling: true
  }
}
layer {
  name: "conv77"
  type: "Convolution"
  bottom: "pool76"
  top: "conv77"
  convolution_param {
    num_output: 32
    bias_term: true
    pad: 0
    kernel_size: 1
    stride: 1
  }
}
layer {
  name: "bn78"
  type: "BatchNorm"
  bottom: "conv77"
  top: "conv77"
  batch_norm_param {
    moving_average_fraction: 0.899999976158
    eps: 9.99999974738e-06
  }
}
layer {
  name: "scale78"
  type: "Scale"
  bottom: "conv77"
  top: "conv77"
  scale_param {
    bias_term: true
  }
}
layer {
  name: "relu79"
  type: "ReLU"
  bottom: "conv77"
  top: "conv77"
}
layer {
  name: "conv80"
  type: "Convolution"
  bottom: "conv77"
  top: "conv80"
  convolution_param {
    num_output: 128
    bias_term: true
    pad: 0
    kernel_size: 1
    stride: 1
  }
}
layer {
  name: "reshape82"
  type: "Reshape"
  bottom: "conv80"
  top: "reshape82"
  reshape_param {
    shape {
      dim: 0
      dim: 1
      dim: 2
      dim: -1
    }
  }
}
layer {
  name: "perm83"
  type: "Permute"
  bottom: "reshape82"
  top: "perm83"
  permute_param {
    order: 0
    order: 2
    order: 1
    order: 3
  }
}
layer {
  name: "softmax84"
  type: "Softmax"
  bottom: "perm83"
  top: "softmax84"
  softmax_param {
    axis: 1
  }
}
layer {
  name: "reshape86"
  type: "Reshape"
  bottom: "softmax84"
  top: "reshape86"
  reshape_param {
    shape {
      dim: 0
      dim: -1
    }
  }
}
layer {
  name: "slice87"
  type: "Slice"
  bottom: "reshape86"
  top: "slice87-0"
  top: "slice87-1"
  slice_param {
    slice_point: 64
    axis: 1
  }
}
layer {
  name: "mul88"
  type: "Scale"
  bottom: "slice74-0"
  bottom: "slice87-0"
  top: "mul88"
  scale_param {
    axis: 0
    bias_term: false
  }
}
layer {
  name: "mul89"
  type: "Scale"
  bottom: "slice74-1"
  bottom: "slice87-1"
  top: "mul89"
  scale_param {
    axis: 0
    bias_term: false
  }
}
layer {
  name: "add90"
  type: "Eltwise"
  bottom: "mul88"
  bottom: "mul89"
  top: "add90"
  eltwise_param {
    operation: SUM
  }
}
layer {
  name: "conv91"
  type: "Convolution"
  bottom: "add90"
  top: "conv91"
  convolution_param {
    num_output: 256
    bias_term: false
    pad: 0
    kernel_size: 1
    stride: 1
  }
}
layer {
  name: "bn92"
  type: "BatchNorm"
  bottom: "conv91"
  top: "conv91"
  batch_norm_param {
    moving_average_fraction: 0.899999976158
    eps: 9.99999974738e-06
  }
}
layer {
  name: "scale92"
  type: "Scale"
  bottom: "conv91"
  top: "conv91"
  scale_param {
    bias_term: true
  }
}
layer {
  name: "add93"
  type: "Eltwise"
  bottom: "conv91"
  bottom: "add66"
  top: "add93"
  eltwise_param {
    operation: SUM
  }
}
layer {
  name: "relu94"
  type: "ReLU"
  bottom: "add93"
  top: "add93"
}
layer {
  name: "conv95"
  type: "Convolution"
  bottom: "add93"
  top: "conv95"
  convolution_param {
    num_output: 128
    bias_term: false
    pad: 0
    kernel_size: 1
    stride: 1
  }
}
layer {
  name: "bn96"
  type: "BatchNorm"
  bottom: "conv95"
  top: "conv95"
  batch_norm_param {
    moving_average_fraction: 0.899999976158
    eps: 9.99999974738e-06
  }
}
layer {
  name: "scale96"
  type: "Scale"
  bottom: "conv95"
  top: "conv95"
  scale_param {
    bias_term: true
  }
}
layer {
  name: "relu97"
  type: "ReLU"
  bottom: "conv95"
  top: "conv95"
}
layer {
  name: "conv98"
  type: "Convolution"
  bottom: "conv95"
  top: "conv98"
  convolution_param {
    num_output: 256
    bias_term: false
    pad: 1
    kernel_size: 3
    group: 2
    stride: 1
  }
}
layer {
  name: "bn99"
  type: "BatchNorm"
  bottom: "conv98"
  top: "conv98"
  batch_norm_param {
    moving_average_fraction: 0.899999976158
    eps: 9.99999974738e-06
  }
}
layer {
  name: "scale99"
  type: "Scale"
  bottom: "conv98"
  top: "conv98"
  scale_param {
    bias_term: true
  }
}
layer {
  name: "relu100"
  type: "ReLU"
  bottom: "conv98"
  top: "conv98"
}
layer {
  name: "slice101"
  type: "Slice"
  bottom: "conv98"
  top: "slice101-0"
  top: "slice101-1"
  slice_param {
    slice_point: 128
    axis: 1
  }
}
layer {
  name: "add102"
  type: "Eltwise"
  bottom: "slice101-0"
  bottom: "slice101-1"
  top: "add102"
  eltwise_param {
    operation: SUM
  }
}
layer {
  name: "pool103"
  type: "Pooling"
  bottom: "add102"
  top: "pool103"
  pooling_param {
    pool: AVE
    global_pooling: true
  }
}
layer {
  name: "conv104"
  type: "Convolution"
  bottom: "pool103"
  top: "conv104"
  convolution_param {
    num_output: 64
    bias_term: true
    pad: 0
    kernel_size: 1
    stride: 1
  }
}
layer {
  name: "bn105"
  type: "BatchNorm"
  bottom: "conv104"
  top: "conv104"
  batch_norm_param {
    moving_average_fraction: 0.899999976158
    eps: 9.99999974738e-06
  }
}
layer {
  name: "scale105"
  type: "Scale"
  bottom: "conv104"
  top: "conv104"
  scale_param {
    bias_term: true
  }
}
layer {
  name: "relu106"
  type: "ReLU"
  bottom: "conv104"
  top: "conv104"
}
layer {
  name: "conv107"
  type: "Convolution"
  bottom: "conv104"
  top: "conv107"
  convolution_param {
    num_output: 256
    bias_term: true
    pad: 0
    kernel_size: 1
    stride: 1
  }
}
layer {
  name: "reshape109"
  type: "Reshape"
  bottom: "conv107"
  top: "reshape109"
  reshape_param {
    shape {
      dim: 0
      dim: 1
      dim: 2
      dim: -1
    }
  }
}
layer {
  name: "perm110"
  type: "Permute"
  bottom: "reshape109"
  top: "perm110"
  permute_param {
    order: 0
    order: 2
    order: 1
    order: 3
  }
}
layer {
  name: "softmax111"
  type: "Softmax"
  bottom: "perm110"
  top: "softmax111"
  softmax_param {
    axis: 1
  }
}
layer {
  name: "reshape113"
  type: "Reshape"
  bottom: "softmax111"
  top: "reshape113"
  reshape_param {
    shape {
      dim: 0
      dim: -1
    }
  }
}
layer {
  name: "slice114"
  type: "Slice"
  bottom: "reshape113"
  top: "slice114-0"
  top: "slice114-1"
  slice_param {
    slice_point: 128
    axis: 1
  }
}
layer {
  name: "mul115"
  type: "Scale"
  bottom: "slice101-0"
  bottom: "slice114-0"
  top: "mul115"
  scale_param {
    axis: 0
    bias_term: false
  }
}
layer {
  name: "mul116"
  type: "Scale"
  bottom: "slice101-1"
  bottom: "slice114-1"
  top: "mul116"
  scale_param {
    axis: 0
    bias_term: false
  }
}
layer {
  name: "add117"
  type: "Eltwise"
  bottom: "mul115"
  bottom: "mul116"
  top: "add117"
  eltwise_param {
    operation: SUM
  }
}
layer {
  name: "pool118"
  type: "Pooling"
  bottom: "add117"
  top: "pool118"
  pooling_param {
    pool: AVE
    kernel_size: 3
    stride: 2
    pad: 1
    round_mode: FLOOR
  }
}
layer {
  name: "conv119"
  type: "Convolution"
  bottom: "pool118"
  top: "conv119"
  convolution_param {
    num_output: 512
    bias_term: false
    pad: 0
    kernel_size: 1
    stride: 1
  }
}
layer {
  name: "bn120"
  type: "BatchNorm"
  bottom: "conv119"
  top: "conv119"
  batch_norm_param {
    moving_average_fraction: 0.899999976158
    eps: 9.99999974738e-06
  }
}
layer {
  name: "scale120"
  type: "Scale"
  bottom: "conv119"
  top: "conv119"
  scale_param {
    bias_term: true
  }
}
layer {
  name: "pool121"
  type: "Pooling"
  bottom: "add93"
  top: "pool121"
  pooling_param {
    pool: AVE
    kernel_size: 2
    stride: 2
    pad: 0
  }
}
layer {
  name: "conv122"
  type: "Convolution"
  bottom: "pool121"
  top: "conv122"
  convolution_param {
    num_output: 512
    bias_term: false
    pad: 0
    kernel_size: 1
    stride: 1
  }
}
layer {
  name: "bn123"
  type: "BatchNorm"
  bottom: "conv122"
  top: "conv122"
  batch_norm_param {
    moving_average_fraction: 0.899999976158
    eps: 9.99999974738e-06
  }
}
layer {
  name: "scale123"
  type: "Scale"
  bottom: "conv122"
  top: "conv122"
  scale_param {
    bias_term: true
  }
}
layer {
  name: "add124"
  type: "Eltwise"
  bottom: "conv119"
  bottom: "conv122"
  top: "add124"
  eltwise_param {
    operation: SUM
  }
}
layer {
  name: "relu125"
  type: "ReLU"
  bottom: "add124"
  top: "add124"
}
layer {
  name: "conv126"
  type: "Convolution"
  bottom: "add124"
  top: "conv126"
  convolution_param {
    num_output: 128
    bias_term: false
    pad: 0
    kernel_size: 1
    stride: 1
  }
}
layer {
  name: "bn127"
  type: "BatchNorm"
  bottom: "conv126"
  top: "conv126"
  batch_norm_param {
    moving_average_fraction: 0.899999976158
    eps: 9.99999974738e-06
  }
}
layer {
  name: "scale127"
  type: "Scale"
  bottom: "conv126"
  top: "conv126"
  scale_param {
    bias_term: true
  }
}
layer {
  name: "relu128"
  type: "ReLU"
  bottom: "conv126"
  top: "conv126"
}
layer {
  name: "conv129"
  type: "Convolution"
  bottom: "conv126"
  top: "conv129"
  convolution_param {
    num_output: 256
    bias_term: false
    pad: 1
    kernel_size: 3
    group: 2
    stride: 1
  }
}
layer {
  name: "bn130"
  type: "BatchNorm"
  bottom: "conv129"
  top: "conv129"
  batch_norm_param {
    moving_average_fraction: 0.899999976158
    eps: 9.99999974738e-06
  }
}
layer {
  name: "scale130"
  type: "Scale"
  bottom: "conv129"
  top: "conv129"
  scale_param {
    bias_term: true
  }
}
layer {
  name: "relu131"
  type: "ReLU"
  bottom: "conv129"
  top: "conv129"
}
layer {
  name: "slice132"
  type: "Slice"
  bottom: "conv129"
  top: "slice132-0"
  top: "slice132-1"
  slice_param {
    slice_point: 128
    axis: 1
  }
}
layer {
  name: "add133"
  type: "Eltwise"
  bottom: "slice132-0"
  bottom: "slice132-1"
  top: "add133"
  eltwise_param {
    operation: SUM
  }
}
layer {
  name: "pool134"
  type: "Pooling"
  bottom: "add133"
  top: "pool134"
  pooling_param {
    pool: AVE
    global_pooling: true
  }
}
layer {
  name: "conv135"
  type: "Convolution"
  bottom: "pool134"
  top: "conv135"
  convolution_param {
    num_output: 64
    bias_term: true
    pad: 0
    kernel_size: 1
    stride: 1
  }
}
layer {
  name: "bn136"
  type: "BatchNorm"
  bottom: "conv135"
  top: "conv135"
  batch_norm_param {
    moving_average_fraction: 0.899999976158
    eps: 9.99999974738e-06
  }
}
layer {
  name: "scale136"
  type: "Scale"
  bottom: "conv135"
  top: "conv135"
  scale_param {
    bias_term: true
  }
}
layer {
  name: "relu137"
  type: "ReLU"
  bottom: "conv135"
  top: "conv135"
}
layer {
  name: "conv138"
  type: "Convolution"
  bottom: "conv135"
  top: "conv138"
  convolution_param {
    num_output: 256
    bias_term: true
    pad: 0
    kernel_size: 1
    stride: 1
  }
}
layer {
  name: "reshape140"
  type: "Reshape"
  bottom: "conv138"
  top: "reshape140"
  reshape_param {
    shape {
      dim: 0
      dim: 1
      dim: 2
      dim: -1
    }
  }
}
layer {
  name: "perm141"
  type: "Permute"
  bottom: "reshape140"
  top: "perm141"
  permute_param {
    order: 0
    order: 2
    order: 1
    order: 3
  }
}
layer {
  name: "softmax142"
  type: "Softmax"
  bottom: "perm141"
  top: "softmax142"
  softmax_param {
    axis: 1
  }
}
layer {
  name: "reshape144"
  type: "Reshape"
  bottom: "softmax142"
  top: "reshape144"
  reshape_param {
    shape {
      dim: 0
      dim: -1
    }
  }
}
layer {
  name: "slice145"
  type: "Slice"
  bottom: "reshape144"
  top: "slice145-0"
  top: "slice145-1"
  slice_param {
    slice_point: 128
    axis: 1
  }
}
layer {
  name: "mul146"
  type: "Scale"
  bottom: "slice132-0"
  bottom: "slice145-0"
  top: "mul146"
  scale_param {
    axis: 0
    bias_term: false
  }
}
layer {
  name: "mul147"
  type: "Scale"
  bottom: "slice132-1"
  bottom: "slice145-1"
  top: "mul147"
  scale_param {
    axis: 0
    bias_term: false
  }
}
layer {
  name: "add148"
  type: "Eltwise"
  bottom: "mul146"
  bottom: "mul147"
  top: "add148"
  eltwise_param {
    operation: SUM
  }
}
layer {
  name: "conv149"
  type: "Convolution"
  bottom: "add148"
  top: "conv149"
  convolution_param {
    num_output: 512
    bias_term: false
    pad: 0
    kernel_size: 1
    stride: 1
  }
}
layer {
  name: "bn150"
  type: "BatchNorm"
  bottom: "conv149"
  top: "conv149"
  batch_norm_param {
    moving_average_fraction: 0.899999976158
    eps: 9.99999974738e-06
  }
}
layer {
  name: "scale150"
  type: "Scale"
  bottom: "conv149"
  top: "conv149"
  scale_param {
    bias_term: true
  }
}
layer {
  name: "add151"
  type: "Eltwise"
  bottom: "conv149"
  bottom: "add124"
  top: "add151"
  eltwise_param {
    operation: SUM
  }
}
layer {
  name: "relu152"
  type: "ReLU"
  bottom: "add151"
  top: "add151"
}
layer {
  name: "conv153"
  type: "Convolution"
  bottom: "add151"
  top: "conv153"
  convolution_param {
    num_output: 128
    bias_term: false
    pad: 0
    kernel_size: 1
    stride: 1
  }
}
layer {
  name: "bn154"
  type: "BatchNorm"
  bottom: "conv153"
  top: "conv153"
  batch_norm_param {
    moving_average_fraction: 0.899999976158
    eps: 9.99999974738e-06
  }
}
layer {
  name: "scale154"
  type: "Scale"
  bottom: "conv153"
  top: "conv153"
  scale_param {
    bias_term: true
  }
}
layer {
  name: "relu155"
  type: "ReLU"
  bottom: "conv153"
  top: "conv153"
}
layer {
  name: "conv156"
  type: "Convolution"
  bottom: "conv153"
  top: "conv156"
  convolution_param {
    num_output: 256
    bias_term: false
    pad: 1
    kernel_size: 3
    group: 2
    stride: 1
  }
}
layer {
  name: "bn157"
  type: "BatchNorm"
  bottom: "conv156"
  top: "conv156"
  batch_norm_param {
    moving_average_fraction: 0.899999976158
    eps: 9.99999974738e-06
  }
}
layer {
  name: "scale157"
  type: "Scale"
  bottom: "conv156"
  top: "conv156"
  scale_param {
    bias_term: true
  }
}
layer {
  name: "relu158"
  type: "ReLU"
  bottom: "conv156"
  top: "conv156"
}
layer {
  name: "slice159"
  type: "Slice"
  bottom: "conv156"
  top: "slice159-0"
  top: "slice159-1"
  slice_param {
    slice_point: 128
    axis: 1
  }
}
layer {
  name: "add160"
  type: "Eltwise"
  bottom: "slice159-0"
  bottom: "slice159-1"
  top: "add160"
  eltwise_param {
    operation: SUM
  }
}
layer {
  name: "pool161"
  type: "Pooling"
  bottom: "add160"
  top: "pool161"
  pooling_param {
    pool: AVE
    global_pooling: true
  }
}
layer {
  name: "conv162"
  type: "Convolution"
  bottom: "pool161"
  top: "conv162"
  convolution_param {
    num_output: 64
    bias_term: true
    pad: 0
    kernel_size: 1
    stride: 1
  }
}
layer {
  name: "bn163"
  type: "BatchNorm"
  bottom: "conv162"
  top: "conv162"
  batch_norm_param {
    moving_average_fraction: 0.899999976158
    eps: 9.99999974738e-06
  }
}
layer {
  name: "scale163"
  type: "Scale"
  bottom: "conv162"
  top: "conv162"
  scale_param {
    bias_term: true
  }
}
layer {
  name: "relu164"
  type: "ReLU"
  bottom: "conv162"
  top: "conv162"
}
layer {
  name: "conv165"
  type: "Convolution"
  bottom: "conv162"
  top: "conv165"
  convolution_param {
    num_output: 256
    bias_term: true
    pad: 0
    kernel_size: 1
    stride: 1
  }
}
layer {
  name: "reshape167"
  type: "Reshape"
  bottom: "conv165"
  top: "reshape167"
  reshape_param {
    shape {
      dim: 0
      dim: 1
      dim: 2
      dim: -1
    }
  }
}
layer {
  name: "perm168"
  type: "Permute"
  bottom: "reshape167"
  top: "perm168"
  permute_param {
    order: 0
    order: 2
    order: 1
    order: 3
  }
}
layer {
  name: "softmax169"
  type: "Softmax"
  bottom: "perm168"
  top: "softmax169"
  softmax_param {
    axis: 1
  }
}
layer {
  name: "reshape171"
  type: "Reshape"
  bottom: "softmax169"
  top: "reshape171"
  reshape_param {
    shape {
      dim: 0
      dim: -1
    }
  }
}
layer {
  name: "slice172"
  type: "Slice"
  bottom: "reshape171"
  top: "slice172-0"
  top: "slice172-1"
  slice_param {
    slice_point: 128
    axis: 1
  }
}
layer {
  name: "mul173"
  type: "Scale"
  bottom: "slice159-0"
  bottom: "slice172-0"
  top: "mul173"
  scale_param {
    axis: 0
    bias_term: false
  }
}
layer {
  name: "mul174"
  type: "Scale"
  bottom: "slice159-1"
  bottom: "slice172-1"
  top: "mul174"
  scale_param {
    axis: 0
    bias_term: false
  }
}
layer {
  name: "add175"
  type: "Eltwise"
  bottom: "mul173"
  bottom: "mul174"
  top: "add175"
  eltwise_param {
    operation: SUM
  }
}
layer {
  name: "conv176"
  type: "Convolution"
  bottom: "add175"
  top: "conv176"
  convolution_param {
    num_output: 512
    bias_term: false
    pad: 0
    kernel_size: 1
    stride: 1
  }
}
layer {
  name: "bn177"
  type: "BatchNorm"
  bottom: "conv176"
  top: "conv176"
  batch_norm_param {
    moving_average_fraction: 0.899999976158
    eps: 9.99999974738e-06
  }
}
layer {
  name: "scale177"
  type: "Scale"
  bottom: "conv176"
  top: "conv176"
  scale_param {
    bias_term: true
  }
}
layer {
  name: "add178"
  type: "Eltwise"
  bottom: "conv176"
  bottom: "add151"
  top: "add178"
  eltwise_param {
    operation: SUM
  }
}
layer {
  name: "relu179"
  type: "ReLU"
  bottom: "add178"
  top: "add178"
}
layer {
  name: "conv180"
  type: "Convolution"
  bottom: "add178"
  top: "conv180"
  convolution_param {
    num_output: 128
    bias_term: false
    pad: 0
    kernel_size: 1
    stride: 1
  }
}
layer {
  name: "bn181"
  type: "BatchNorm"
  bottom: "conv180"
  top: "conv180"
  batch_norm_param {
    moving_average_fraction: 0.899999976158
    eps: 9.99999974738e-06
  }
}
layer {
  name: "scale181"
  type: "Scale"
  bottom: "conv180"
  top: "conv180"
  scale_param {
    bias_term: true
  }
}
layer {
  name: "relu182"
  type: "ReLU"
  bottom: "conv180"
  top: "conv180"
}
layer {
  name: "conv183"
  type: "Convolution"
  bottom: "conv180"
  top: "conv183"
  convolution_param {
    num_output: 256
    bias_term: false
    pad: 1
    kernel_size: 3
    group: 2
    stride: 1
  }
}
layer {
  name: "bn184"
  type: "BatchNorm"
  bottom: "conv183"
  top: "conv183"
  batch_norm_param {
    moving_average_fraction: 0.899999976158
    eps: 9.99999974738e-06
  }
}
layer {
  name: "scale184"
  type: "Scale"
  bottom: "conv183"
  top: "conv183"
  scale_param {
    bias_term: true
  }
}
layer {
  name: "relu185"
  type: "ReLU"
  bottom: "conv183"
  top: "conv183"
}
layer {
  name: "slice186"
  type: "Slice"
  bottom: "conv183"
  top: "slice186-0"
  top: "slice186-1"
  slice_param {
    slice_point: 128
    axis: 1
  }
}
layer {
  name: "add187"
  type: "Eltwise"
  bottom: "slice186-0"
  bottom: "slice186-1"
  top: "add187"
  eltwise_param {
    operation: SUM
  }
}
layer {
  name: "pool188"
  type: "Pooling"
  bottom: "add187"
  top: "pool188"
  pooling_param {
    pool: AVE
    global_pooling: true
  }
}
layer {
  name: "conv189"
  type: "Convolution"
  bottom: "pool188"
  top: "conv189"
  convolution_param {
    num_output: 64
    bias_term: true
    pad: 0
    kernel_size: 1
    stride: 1
  }
}
layer {
  name: "bn190"
  type: "BatchNorm"
  bottom: "conv189"
  top: "conv189"
  batch_norm_param {
    moving_average_fraction: 0.899999976158
    eps: 9.99999974738e-06
  }
}
layer {
  name: "scale190"
  type: "Scale"
  bottom: "conv189"
  top: "conv189"
  scale_param {
    bias_term: true
  }
}
layer {
  name: "relu191"
  type: "ReLU"
  bottom: "conv189"
  top: "conv189"
}
layer {
  name: "conv192"
  type: "Convolution"
  bottom: "conv189"
  top: "conv192"
  convolution_param {
    num_output: 256
    bias_term: true
    pad: 0
    kernel_size: 1
    stride: 1
  }
}
layer {
  name: "reshape194"
  type: "Reshape"
  bottom: "conv192"
  top: "reshape194"
  reshape_param {
    shape {
      dim: 0
      dim: 1
      dim: 2
      dim: -1
    }
  }
}
layer {
  name: "perm195"
  type: "Permute"
  bottom: "reshape194"
  top: "perm195"
  permute_param {
    order: 0
    order: 2
    order: 1
    order: 3
  }
}
layer {
  name: "softmax196"
  type: "Softmax"
  bottom: "perm195"
  top: "softmax196"
  softmax_param {
    axis: 1
  }
}
layer {
  name: "reshape198"
  type: "Reshape"
  bottom: "softmax196"
  top: "reshape198"
  reshape_param {
    shape {
      dim: 0
      dim: -1
    }
  }
}
layer {
  name: "slice199"
  type: "Slice"
  bottom: "reshape198"
  top: "slice199-0"
  top: "slice199-1"
  slice_param {
    slice_point: 128
    axis: 1
  }
}
layer {
  name: "mul200"
  type: "Scale"
  bottom: "slice186-0"
  bottom: "slice199-0"
  top: "mul200"
  scale_param {
    axis: 0
    bias_term: false
  }
}
layer {
  name: "mul201"
  type: "Scale"
  bottom: "slice186-1"
  bottom: "slice199-1"
  top: "mul201"
  scale_param {
    axis: 0
    bias_term: false
  }
}
layer {
  name: "add202"
  type: "Eltwise"
  bottom: "mul200"
  bottom: "mul201"
  top: "add202"
  eltwise_param {
    operation: SUM
  }
}
layer {
  name: "conv203"
  type: "Convolution"
  bottom: "add202"
  top: "conv203"
  convolution_param {
    num_output: 512
    bias_term: false
    pad: 0
    kernel_size: 1
    stride: 1
  }
}
layer {
  name: "bn204"
  type: "BatchNorm"
  bottom: "conv203"
  top: "conv203"
  batch_norm_param {
    moving_average_fraction: 0.899999976158
    eps: 9.99999974738e-06
  }
}
layer {
  name: "scale204"
  type: "Scale"
  bottom: "conv203"
  top: "conv203"
  scale_param {
    bias_term: true
  }
}
layer {
  name: "add205"
  type: "Eltwise"
  bottom: "conv203"
  bottom: "add178"
  top: "add205"
  eltwise_param {
    operation: SUM
  }
}
layer {
  name: "relu206"
  type: "ReLU"
  bottom: "add205"
  top: "add205"
}
layer {
  name: "conv207"
  type: "Convolution"
  bottom: "add205"
  top: "conv207"
  convolution_param {
    num_output: 128
    bias_term: false
    pad: 0
    kernel_size: 1
    stride: 1
  }
}
layer {
  name: "bn208"
  type: "BatchNorm"
  bottom: "conv207"
  top: "conv207"
  batch_norm_param {
    moving_average_fraction: 0.899999976158
    eps: 9.99999974738e-06
  }
}
layer {
  name: "scale208"
  type: "Scale"
  bottom: "conv207"
  top: "conv207"
  scale_param {
    bias_term: true
  }
}
layer {
  name: "relu209"
  type: "ReLU"
  bottom: "conv207"
  top: "conv207"
}
layer {
  name: "conv210"
  type: "Convolution"
  bottom: "conv207"
  top: "conv210"
  convolution_param {
    num_output: 256
    bias_term: false
    pad: 1
    kernel_size: 3
    group: 2
    stride: 1
  }
}
layer {
  name: "bn211"
  type: "BatchNorm"
  bottom: "conv210"
  top: "conv210"
  batch_norm_param {
    moving_average_fraction: 0.899999976158
    eps: 9.99999974738e-06
  }
}
layer {
  name: "scale211"
  type: "Scale"
  bottom: "conv210"
  top: "conv210"
  scale_param {
    bias_term: true
  }
}
layer {
  name: "relu212"
  type: "ReLU"
  bottom: "conv210"
  top: "conv210"
}
layer {
  name: "slice213"
  type: "Slice"
  bottom: "conv210"
  top: "slice213-0"
  top: "slice213-1"
  slice_param {
    slice_point: 128
    axis: 1
  }
}
layer {
  name: "add214"
  type: "Eltwise"
  bottom: "slice213-0"
  bottom: "slice213-1"
  top: "add214"
  eltwise_param {
    operation: SUM
  }
}
layer {
  name: "pool215"
  type: "Pooling"
  bottom: "add214"
  top: "pool215"
  pooling_param {
    pool: AVE
    global_pooling: true
  }
}
layer {
  name: "conv216"
  type: "Convolution"
  bottom: "pool215"
  top: "conv216"
  convolution_param {
    num_output: 64
    bias_term: true
    pad: 0
    kernel_size: 1
    stride: 1
  }
}
layer {
  name: "bn217"
  type: "BatchNorm"
  bottom: "conv216"
  top: "conv216"
  batch_norm_param {
    moving_average_fraction: 0.899999976158
    eps: 9.99999974738e-06
  }
}
layer {
  name: "scale217"
  type: "Scale"
  bottom: "conv216"
  top: "conv216"
  scale_param {
    bias_term: true
  }
}
layer {
  name: "relu218"
  type: "ReLU"
  bottom: "conv216"
  top: "conv216"
}
layer {
  name: "conv219"
  type: "Convolution"
  bottom: "conv216"
  top: "conv219"
  convolution_param {
    num_output: 256
    bias_term: true
    pad: 0
    kernel_size: 1
    stride: 1
  }
}
layer {
  name: "reshape221"
  type: "Reshape"
  bottom: "conv219"
  top: "reshape221"
  reshape_param {
    shape {
      dim: 0
      dim: 1
      dim: 2
      dim: -1
    }
  }
}
layer {
  name: "perm222"
  type: "Permute"
  bottom: "reshape221"
  top: "perm222"
  permute_param {
    order: 0
    order: 2
    order: 1
    order: 3
  }
}
layer {
  name: "softmax223"
  type: "Softmax"
  bottom: "perm222"
  top: "softmax223"
  softmax_param {
    axis: 1
  }
}
layer {
  name: "reshape225"
  type: "Reshape"
  bottom: "softmax223"
  top: "reshape225"
  reshape_param {
    shape {
      dim: 0
      dim: -1
    }
  }
}
layer {
  name: "slice226"
  type: "Slice"
  bottom: "reshape225"
  top: "slice226-0"
  top: "slice226-1"
  slice_param {
    slice_point: 128
    axis: 1
  }
}
layer {
  name: "mul227"
  type: "Scale"
  bottom: "slice213-0"
  bottom: "slice226-0"
  top: "mul227"
  scale_param {
    axis: 0
    bias_term: false
  }
}
layer {
  name: "mul228"
  type: "Scale"
  bottom: "slice213-1"
  bottom: "slice226-1"
  top: "mul228"
  scale_param {
    axis: 0
    bias_term: false
  }
}
layer {
  name: "add229"
  type: "Eltwise"
  bottom: "mul227"
  bottom: "mul228"
  top: "add229"
  eltwise_param {
    operation: SUM
  }
}
layer {
  name: "conv230"
  type: "Convolution"
  bottom: "add229"
  top: "conv230"
  convolution_param {
    num_output: 512
    bias_term: false
    pad: 0
    kernel_size: 1
    stride: 1
  }
}
layer {
  name: "bn231"
  type: "BatchNorm"
  bottom: "conv230"
  top: "conv230"
  batch_norm_param {
    moving_average_fraction: 0.899999976158
    eps: 9.99999974738e-06
  }
}
layer {
  name: "scale231"
  type: "Scale"
  bottom: "conv230"
  top: "conv230"
  scale_param {
    bias_term: true
  }
}
layer {
  name: "add232"
  type: "Eltwise"
  bottom: "conv230"
  bottom: "add205"
  top: "add232"
  eltwise_param {
    operation: SUM
  }
}
layer {
  name: "relu233"
  type: "ReLU"
  bottom: "add232"
  top: "add232"
}
layer {
  name: "conv234"
  type: "Convolution"
  bottom: "add232"
  top: "conv234"
  convolution_param {
    num_output: 128
    bias_term: false
    pad: 0
    kernel_size: 1
    stride: 1
  }
}
layer {
  name: "bn235"
  type: "BatchNorm"
  bottom: "conv234"
  top: "conv234"
  batch_norm_param {
    moving_average_fraction: 0.899999976158
    eps: 9.99999974738e-06
  }
}
layer {
  name: "scale235"
  type: "Scale"
  bottom: "conv234"
  top: "conv234"
  scale_param {
    bias_term: true
  }
}
layer {
  name: "relu236"
  type: "ReLU"
  bottom: "conv234"
  top: "conv234"
}
layer {
  name: "conv237"
  type: "Convolution"
  bottom: "conv234"
  top: "conv237"
  convolution_param {
    num_output: 256
    bias_term: false
    pad: 1
    kernel_size: 3
    group: 2
    stride: 1
  }
}
layer {
  name: "bn238"
  type: "BatchNorm"
  bottom: "conv237"
  top: "conv237"
  batch_norm_param {
    moving_average_fraction: 0.899999976158
    eps: 9.99999974738e-06
  }
}
layer {
  name: "scale238"
  type: "Scale"
  bottom: "conv237"
  top: "conv237"
  scale_param {
    bias_term: true
  }
}
layer {
  name: "relu239"
  type: "ReLU"
  bottom: "conv237"
  top: "conv237"
}
layer {
  name: "slice240"
  type: "Slice"
  bottom: "conv237"
  top: "slice240-0"
  top: "slice240-1"
  slice_param {
    slice_point: 128
    axis: 1
  }
}
layer {
  name: "add241"
  type: "Eltwise"
  bottom: "slice240-0"
  bottom: "slice240-1"
  top: "add241"
  eltwise_param {
    operation: SUM
  }
}
layer {
  name: "pool242"
  type: "Pooling"
  bottom: "add241"
  top: "pool242"
  pooling_param {
    pool: AVE
    global_pooling: true
  }
}
layer {
  name: "conv243"
  type: "Convolution"
  bottom: "pool242"
  top: "conv243"
  convolution_param {
    num_output: 64
    bias_term: true
    pad: 0
    kernel_size: 1
    stride: 1
  }
}
layer {
  name: "bn244"
  type: "BatchNorm"
  bottom: "conv243"
  top: "conv243"
  batch_norm_param {
    moving_average_fraction: 0.899999976158
    eps: 9.99999974738e-06
  }
}
layer {
  name: "scale244"
  type: "Scale"
  bottom: "conv243"
  top: "conv243"
  scale_param {
    bias_term: true
  }
}
layer {
  name: "relu245"
  type: "ReLU"
  bottom: "conv243"
  top: "conv243"
}
layer {
  name: "conv246"
  type: "Convolution"
  bottom: "conv243"
  top: "conv246"
  convolution_param {
    num_output: 256
    bias_term: true
    pad: 0
    kernel_size: 1
    stride: 1
  }
}
layer {
  name: "reshape248"
  type: "Reshape"
  bottom: "conv246"
  top: "reshape248"
  reshape_param {
    shape {
      dim: 0
      dim: 1
      dim: 2
      dim: -1
    }
  }
}
layer {
  name: "perm249"
  type: "Permute"
  bottom: "reshape248"
  top: "perm249"
  permute_param {
    order: 0
    order: 2
    order: 1
    order: 3
  }
}
layer {
  name: "softmax250"
  type: "Softmax"
  bottom: "perm249"
  top: "softmax250"
  softmax_param {
    axis: 1
  }
}
layer {
  name: "reshape252"
  type: "Reshape"
  bottom: "softmax250"
  top: "reshape252"
  reshape_param {
    shape {
      dim: 0
      dim: -1
    }
  }
}
layer {
  name: "slice253"
  type: "Slice"
  bottom: "reshape252"
  top: "slice253-0"
  top: "slice253-1"
  slice_param {
    slice_point: 128
    axis: 1
  }
}
layer {
  name: "mul254"
  type: "Scale"
  bottom: "slice240-0"
  bottom: "slice253-0"
  top: "mul254"
  scale_param {
    axis: 0
    bias_term: false
  }
}
layer {
  name: "mul255"
  type: "Scale"
  bottom: "slice240-1"
  bottom: "slice253-1"
  top: "mul255"
  scale_param {
    axis: 0
    bias_term: false
  }
}
layer {
  name: "add256"
  type: "Eltwise"
  bottom: "mul254"
  bottom: "mul255"
  top: "add256"
  eltwise_param {
    operation: SUM
  }
}
layer {
  name: "conv257"
  type: "Convolution"
  bottom: "add256"
  top: "conv257"
  convolution_param {
    num_output: 512
    bias_term: false
    pad: 0
    kernel_size: 1
    stride: 1
  }
}
layer {
  name: "bn258"
  type: "BatchNorm"
  bottom: "conv257"
  top: "conv257"
  batch_norm_param {
    moving_average_fraction: 0.899999976158
    eps: 9.99999974738e-06
  }
}
layer {
  name: "scale258"
  type: "Scale"
  bottom: "conv257"
  top: "conv257"
  scale_param {
    bias_term: true
  }
}
layer {
  name: "add259"
  type: "Eltwise"
  bottom: "conv257"
  bottom: "add232"
  top: "add259"
  eltwise_param {
    operation: SUM
  }
}
layer {
  name: "relu260"
  type: "ReLU"
  bottom: "add259"
  top: "add259"
}
layer {
  name: "conv261"
  type: "Convolution"
  bottom: "add259"
  top: "conv261"
  convolution_param {
    num_output: 128
    bias_term: false
    pad: 0
    kernel_size: 1
    stride: 1
  }
}
layer {
  name: "bn262"
  type: "BatchNorm"
  bottom: "conv261"
  top: "conv261"
  batch_norm_param {
    moving_average_fraction: 0.899999976158
    eps: 9.99999974738e-06
  }
}
layer {
  name: "scale262"
  type: "Scale"
  bottom: "conv261"
  top: "conv261"
  scale_param {
    bias_term: true
  }
}
layer {
  name: "relu263"
  type: "ReLU"
  bottom: "conv261"
  top: "conv261"
}
layer {
  name: "conv264"
  type: "Convolution"
  bottom: "conv261"
  top: "conv264"
  convolution_param {
    num_output: 256
    bias_term: false
    pad: 1
    kernel_size: 3
    group: 2
    stride: 1
  }
}
layer {
  name: "bn265"
  type: "BatchNorm"
  bottom: "conv264"
  top: "conv264"
  batch_norm_param {
    moving_average_fraction: 0.899999976158
    eps: 9.99999974738e-06
  }
}
layer {
  name: "scale265"
  type: "Scale"
  bottom: "conv264"
  top: "conv264"
  scale_param {
    bias_term: true
  }
}
layer {
  name: "relu266"
  type: "ReLU"
  bottom: "conv264"
  top: "conv264"
}
layer {
  name: "slice267"
  type: "Slice"
  bottom: "conv264"
  top: "slice267-0"
  top: "slice267-1"
  slice_param {
    slice_point: 128
    axis: 1
  }
}
layer {
  name: "add268"
  type: "Eltwise"
  bottom: "slice267-0"
  bottom: "slice267-1"
  top: "add268"
  eltwise_param {
    operation: SUM
  }
}
layer {
  name: "pool269"
  type: "Pooling"
  bottom: "add268"
  top: "pool269"
  pooling_param {
    pool: AVE
    global_pooling: true
  }
}
layer {
  name: "conv270"
  type: "Convolution"
  bottom: "pool269"
  top: "conv270"
  convolution_param {
    num_output: 64
    bias_term: true
    pad: 0
    kernel_size: 1
    stride: 1
  }
}
layer {
  name: "bn271"
  type: "BatchNorm"
  bottom: "conv270"
  top: "conv270"
  batch_norm_param {
    moving_average_fraction: 0.899999976158
    eps: 9.99999974738e-06
  }
}
layer {
  name: "scale271"
  type: "Scale"
  bottom: "conv270"
  top: "conv270"
  scale_param {
    bias_term: true
  }
}
layer {
  name: "relu272"
  type: "ReLU"
  bottom: "conv270"
  top: "conv270"
}
layer {
  name: "conv273"
  type: "Convolution"
  bottom: "conv270"
  top: "conv273"
  convolution_param {
    num_output: 256
    bias_term: true
    pad: 0
    kernel_size: 1
    stride: 1
  }
}
layer {
  name: "reshape275"
  type: "Reshape"
  bottom: "conv273"
  top: "reshape275"
  reshape_param {
    shape {
      dim: 0
      dim: 1
      dim: 2
      dim: -1
    }
  }
}
layer {
  name: "perm276"
  type: "Permute"
  bottom: "reshape275"
  top: "perm276"
  permute_param {
    order: 0
    order: 2
    order: 1
    order: 3
  }
}
layer {
  name: "softmax277"
  type: "Softmax"
  bottom: "perm276"
  top: "softmax277"
  softmax_param {
    axis: 1
  }
}
layer {
  name: "reshape279"
  type: "Reshape"
  bottom: "softmax277"
  top: "reshape279"
  reshape_param {
    shape {
      dim: 0
      dim: -1
    }
  }
}
layer {
  name: "slice280"
  type: "Slice"
  bottom: "reshape279"
  top: "slice280-0"
  top: "slice280-1"
  slice_param {
    slice_point: 128
    axis: 1
  }
}
layer {
  name: "mul281"
  type: "Scale"
  bottom: "slice267-0"
  bottom: "slice280-0"
  top: "mul281"
  scale_param {
    axis: 0
    bias_term: false
  }
}
layer {
  name: "mul282"
  type: "Scale"
  bottom: "slice267-1"
  bottom: "slice280-1"
  top: "mul282"
  scale_param {
    axis: 0
    bias_term: false
  }
}
layer {
  name: "add283"
  type: "Eltwise"
  bottom: "mul281"
  bottom: "mul282"
  top: "add283"
  eltwise_param {
    operation: SUM
  }
}
layer {
  name: "conv284"
  type: "Convolution"
  bottom: "add283"
  top: "conv284"
  convolution_param {
    num_output: 512
    bias_term: false
    pad: 0
    kernel_size: 1
    stride: 1
  }
}
layer {
  name: "bn285"
  type: "BatchNorm"
  bottom: "conv284"
  top: "conv284"
  batch_norm_param {
    moving_average_fraction: 0.899999976158
    eps: 9.99999974738e-06
  }
}
layer {
  name: "scale285"
  type: "Scale"
  bottom: "conv284"
  top: "conv284"
  scale_param {
    bias_term: true
  }
}
layer {
  name: "add286"
  type: "Eltwise"
  bottom: "conv284"
  bottom: "add259"
  top: "add286"
  eltwise_param {
    operation: SUM
  }
}
layer {
  name: "relu287"
  type: "ReLU"
  bottom: "add286"
  top: "add286"
}
layer {
  name: "conv288"
  type: "Convolution"
  bottom: "add286"
  top: "conv288"
  convolution_param {
    num_output: 128
    bias_term: false
    pad: 0
    kernel_size: 1
    stride: 1
  }
}
layer {
  name: "bn289"
  type: "BatchNorm"
  bottom: "conv288"
  top: "conv288"
  batch_norm_param {
    moving_average_fraction: 0.899999976158
    eps: 9.99999974738e-06
  }
}
layer {
  name: "scale289"
  type: "Scale"
  bottom: "conv288"
  top: "conv288"
  scale_param {
    bias_term: true
  }
}
layer {
  name: "relu290"
  type: "ReLU"
  bottom: "conv288"
  top: "conv288"
}
layer {
  name: "conv291"
  type: "Convolution"
  bottom: "conv288"
  top: "conv291"
  convolution_param {
    num_output: 256
    bias_term: false
    pad: 1
    kernel_size: 3
    group: 2
    stride: 1
  }
}
layer {
  name: "bn292"
  type: "BatchNorm"
  bottom: "conv291"
  top: "conv291"
  batch_norm_param {
    moving_average_fraction: 0.899999976158
    eps: 9.99999974738e-06
  }
}
layer {
  name: "scale292"
  type: "Scale"
  bottom: "conv291"
  top: "conv291"
  scale_param {
    bias_term: true
  }
}
layer {
  name: "relu293"
  type: "ReLU"
  bottom: "conv291"
  top: "conv291"
}
layer {
  name: "slice294"
  type: "Slice"
  bottom: "conv291"
  top: "slice294-0"
  top: "slice294-1"
  slice_param {
    slice_point: 128
    axis: 1
  }
}
layer {
  name: "add295"
  type: "Eltwise"
  bottom: "slice294-0"
  bottom: "slice294-1"
  top: "add295"
  eltwise_param {
    operation: SUM
  }
}
layer {
  name: "pool296"
  type: "Pooling"
  bottom: "add295"
  top: "pool296"
  pooling_param {
    pool: AVE
    global_pooling: true
  }
}
layer {
  name: "conv297"
  type: "Convolution"
  bottom: "pool296"
  top: "conv297"
  convolution_param {
    num_output: 64
    bias_term: true
    pad: 0
    kernel_size: 1
    stride: 1
  }
}
layer {
  name: "bn298"
  type: "BatchNorm"
  bottom: "conv297"
  top: "conv297"
  batch_norm_param {
    moving_average_fraction: 0.899999976158
    eps: 9.99999974738e-06
  }
}
layer {
  name: "scale298"
  type: "Scale"
  bottom: "conv297"
  top: "conv297"
  scale_param {
    bias_term: true
  }
}
layer {
  name: "relu299"
  type: "ReLU"
  bottom: "conv297"
  top: "conv297"
}
layer {
  name: "conv300"
  type: "Convolution"
  bottom: "conv297"
  top: "conv300"
  convolution_param {
    num_output: 256
    bias_term: true
    pad: 0
    kernel_size: 1
    stride: 1
  }
}
layer {
  name: "reshape302"
  type: "Reshape"
  bottom: "conv300"
  top: "reshape302"
  reshape_param {
    shape {
      dim: 0
      dim: 1
      dim: 2
      dim: -1
    }
  }
}
layer {
  name: "perm303"
  type: "Permute"
  bottom: "reshape302"
  top: "perm303"
  permute_param {
    order: 0
    order: 2
    order: 1
    order: 3
  }
}
layer {
  name: "softmax304"
  type: "Softmax"
  bottom: "perm303"
  top: "softmax304"
  softmax_param {
    axis: 1
  }
}
layer {
  name: "reshape306"
  type: "Reshape"
  bottom: "softmax304"
  top: "reshape306"
  reshape_param {
    shape {
      dim: 0
      dim: -1
    }
  }
}
layer {
  name: "slice307"
  type: "Slice"
  bottom: "reshape306"
  top: "slice307-0"
  top: "slice307-1"
  slice_param {
    slice_point: 128
    axis: 1
  }
}
layer {
  name: "mul308"
  type: "Scale"
  bottom: "slice294-0"
  bottom: "slice307-0"
  top: "mul308"
  scale_param {
    axis: 0
    bias_term: false
  }
}
layer {
  name: "mul309"
  type: "Scale"
  bottom: "slice294-1"
  bottom: "slice307-1"
  top: "mul309"
  scale_param {
    axis: 0
    bias_term: false
  }
}
layer {
  name: "add310"
  type: "Eltwise"
  bottom: "mul308"
  bottom: "mul309"
  top: "add310"
  eltwise_param {
    operation: SUM
  }
}
layer {
  name: "conv311"
  type: "Convolution"
  bottom: "add310"
  top: "conv311"
  convolution_param {
    num_output: 512
    bias_term: false
    pad: 0
    kernel_size: 1
    stride: 1
  }
}
layer {
  name: "bn312"
  type: "BatchNorm"
  bottom: "conv311"
  top: "conv311"
  batch_norm_param {
    moving_average_fraction: 0.899999976158
    eps: 9.99999974738e-06
  }
}
layer {
  name: "scale312"
  type: "Scale"
  bottom: "conv311"
  top: "conv311"
  scale_param {
    bias_term: true
  }
}
layer {
  name: "add313"
  type: "Eltwise"
  bottom: "conv311"
  bottom: "add286"
  top: "add313"
  eltwise_param {
    operation: SUM
  }
}
layer {
  name: "relu314"
  type: "ReLU"
  bottom: "add313"
  top: "add313"
}
layer {
  name: "conv315"
  type: "Convolution"
  bottom: "add313"
  top: "conv315"
  convolution_param {
    num_output: 128
    bias_term: false
    pad: 0
    kernel_size: 1
    stride: 1
  }
}
layer {
  name: "bn316"
  type: "BatchNorm"
  bottom: "conv315"
  top: "conv315"
  batch_norm_param {
    moving_average_fraction: 0.899999976158
    eps: 9.99999974738e-06
  }
}
layer {
  name: "scale316"
  type: "Scale"
  bottom: "conv315"
  top: "conv315"
  scale_param {
    bias_term: true
  }
}
layer {
  name: "relu317"
  type: "ReLU"
  bottom: "conv315"
  top: "conv315"
}
layer {
  name: "conv318"
  type: "Convolution"
  bottom: "conv315"
  top: "conv318"
  convolution_param {
    num_output: 256
    bias_term: false
    pad: 1
    kernel_size: 3
    group: 2
    stride: 1
  }
}
layer {
  name: "bn319"
  type: "BatchNorm"
  bottom: "conv318"
  top: "conv318"
  batch_norm_param {
    moving_average_fraction: 0.899999976158
    eps: 9.99999974738e-06
  }
}
layer {
  name: "scale319"
  type: "Scale"
  bottom: "conv318"
  top: "conv318"
  scale_param {
    bias_term: true
  }
}
layer {
  name: "relu320"
  type: "ReLU"
  bottom: "conv318"
  top: "conv318"
}
layer {
  name: "slice321"
  type: "Slice"
  bottom: "conv318"
  top: "slice321-0"
  top: "slice321-1"
  slice_param {
    slice_point: 128
    axis: 1
  }
}
layer {
  name: "add322"
  type: "Eltwise"
  bottom: "slice321-0"
  bottom: "slice321-1"
  top: "add322"
  eltwise_param {
    operation: SUM
  }
}
layer {
  name: "pool323"
  type: "Pooling"
  bottom: "add322"
  top: "pool323"
  pooling_param {
    pool: AVE
    global_pooling: true
  }
}
layer {
  name: "conv324"
  type: "Convolution"
  bottom: "pool323"
  top: "conv324"
  convolution_param {
    num_output: 64
    bias_term: true
    pad: 0
    kernel_size: 1
    stride: 1
  }
}
layer {
  name: "bn325"
  type: "BatchNorm"
  bottom: "conv324"
  top: "conv324"
  batch_norm_param {
    moving_average_fraction: 0.899999976158
    eps: 9.99999974738e-06
  }
}
layer {
  name: "scale325"
  type: "Scale"
  bottom: "conv324"
  top: "conv324"
  scale_param {
    bias_term: true
  }
}
layer {
  name: "relu326"
  type: "ReLU"
  bottom: "conv324"
  top: "conv324"
}
layer {
  name: "conv327"
  type: "Convolution"
  bottom: "conv324"
  top: "conv327"
  convolution_param {
    num_output: 256
    bias_term: true
    pad: 0
    kernel_size: 1
    stride: 1
  }
}
layer {
  name: "reshape329"
  type: "Reshape"
  bottom: "conv327"
  top: "reshape329"
  reshape_param {
    shape {
      dim: 0
      dim: 1
      dim: 2
      dim: -1
    }
  }
}
layer {
  name: "perm330"
  type: "Permute"
  bottom: "reshape329"
  top: "perm330"
  permute_param {
    order: 0
    order: 2
    order: 1
    order: 3
  }
}
layer {
  name: "softmax331"
  type: "Softmax"
  bottom: "perm330"
  top: "softmax331"
  softmax_param {
    axis: 1
  }
}
layer {
  name: "reshape333"
  type: "Reshape"
  bottom: "softmax331"
  top: "reshape333"
  reshape_param {
    shape {
      dim: 0
      dim: -1
    }
  }
}
layer {
  name: "slice334"
  type: "Slice"
  bottom: "reshape333"
  top: "slice334-0"
  top: "slice334-1"
  slice_param {
    slice_point: 128
    axis: 1
  }
}
layer {
  name: "mul335"
  type: "Scale"
  bottom: "slice321-0"
  bottom: "slice334-0"
  top: "mul335"
  scale_param {
    axis: 0
    bias_term: false
  }
}
layer {
  name: "mul336"
  type: "Scale"
  bottom: "slice321-1"
  bottom: "slice334-1"
  top: "mul336"
  scale_param {
    axis: 0
    bias_term: false
  }
}
layer {
  name: "add337"
  type: "Eltwise"
  bottom: "mul335"
  bottom: "mul336"
  top: "add337"
  eltwise_param {
    operation: SUM
  }
}
layer {
  name: "conv338"
  type: "Convolution"
  bottom: "add337"
  top: "conv338"
  convolution_param {
    num_output: 512
    bias_term: false
    pad: 0
    kernel_size: 1
    stride: 1
  }
}
layer {
  name: "bn339"
  type: "BatchNorm"
  bottom: "conv338"
  top: "conv338"
  batch_norm_param {
    moving_average_fraction: 0.899999976158
    eps: 9.99999974738e-06
  }
}
layer {
  name: "scale339"
  type: "Scale"
  bottom: "conv338"
  top: "conv338"
  scale_param {
    bias_term: true
  }
}
layer {
  name: "add340"
  type: "Eltwise"
  bottom: "conv338"
  bottom: "add313"
  top: "add340"
  eltwise_param {
    operation: SUM
  }
}
layer {
  name: "relu341"
  type: "ReLU"
  bottom: "add340"
  top: "add340"
}
layer {
  name: "conv342"
  type: "Convolution"
  bottom: "add340"
  top: "conv342"
  convolution_param {
    num_output: 128
    bias_term: false
    pad: 0
    kernel_size: 1
    stride: 1
  }
}
layer {
  name: "bn343"
  type: "BatchNorm"
  bottom: "conv342"
  top: "conv342"
  batch_norm_param {
    moving_average_fraction: 0.899999976158
    eps: 9.99999974738e-06
  }
}
layer {
  name: "scale343"
  type: "Scale"
  bottom: "conv342"
  top: "conv342"
  scale_param {
    bias_term: true
  }
}
layer {
  name: "relu344"
  type: "ReLU"
  bottom: "conv342"
  top: "conv342"
}
layer {
  name: "conv345"
  type: "Convolution"
  bottom: "conv342"
  top: "conv345"
  convolution_param {
    num_output: 256
    bias_term: false
    pad: 1
    kernel_size: 3
    group: 2
    stride: 1
  }
}
layer {
  name: "bn346"
  type: "BatchNorm"
  bottom: "conv345"
  top: "conv345"
  batch_norm_param {
    moving_average_fraction: 0.899999976158
    eps: 9.99999974738e-06
  }
}
layer {
  name: "scale346"
  type: "Scale"
  bottom: "conv345"
  top: "conv345"
  scale_param {
    bias_term: true
  }
}
layer {
  name: "relu347"
  type: "ReLU"
  bottom: "conv345"
  top: "conv345"
}
layer {
  name: "slice348"
  type: "Slice"
  bottom: "conv345"
  top: "slice348-0"
  top: "slice348-1"
  slice_param {
    slice_point: 128
    axis: 1
  }
}
layer {
  name: "add349"
  type: "Eltwise"
  bottom: "slice348-0"
  bottom: "slice348-1"
  top: "add349"
  eltwise_param {
    operation: SUM
  }
}
layer {
  name: "pool350"
  type: "Pooling"
  bottom: "add349"
  top: "pool350"
  pooling_param {
    pool: AVE
    global_pooling: true
  }
}
layer {
  name: "conv351"
  type: "Convolution"
  bottom: "pool350"
  top: "conv351"
  convolution_param {
    num_output: 64
    bias_term: true
    pad: 0
    kernel_size: 1
    stride: 1
  }
}
layer {
  name: "bn352"
  type: "BatchNorm"
  bottom: "conv351"
  top: "conv351"
  batch_norm_param {
    moving_average_fraction: 0.899999976158
    eps: 9.99999974738e-06
  }
}
layer {
  name: "scale352"
  type: "Scale"
  bottom: "conv351"
  top: "conv351"
  scale_param {
    bias_term: true
  }
}
layer {
  name: "relu353"
  type: "ReLU"
  bottom: "conv351"
  top: "conv351"
}
layer {
  name: "conv354"
  type: "Convolution"
  bottom: "conv351"
  top: "conv354"
  convolution_param {
    num_output: 256
    bias_term: true
    pad: 0
    kernel_size: 1
    stride: 1
  }
}
layer {
  name: "reshape356"
  type: "Reshape"
  bottom: "conv354"
  top: "reshape356"
  reshape_param {
    shape {
      dim: 0
      dim: 1
      dim: 2
      dim: -1
    }
  }
}
layer {
  name: "perm357"
  type: "Permute"
  bottom: "reshape356"
  top: "perm357"
  permute_param {
    order: 0
    order: 2
    order: 1
    order: 3
  }
}
layer {
  name: "softmax358"
  type: "Softmax"
  bottom: "perm357"
  top: "softmax358"
  softmax_param {
    axis: 1
  }
}
layer {
  name: "reshape360"
  type: "Reshape"
  bottom: "softmax358"
  top: "reshape360"
  reshape_param {
    shape {
      dim: 0
      dim: -1
    }
  }
}
layer {
  name: "slice361"
  type: "Slice"
  bottom: "reshape360"
  top: "slice361-0"
  top: "slice361-1"
  slice_param {
    slice_point: 128
    axis: 1
  }
}
layer {
  name: "mul362"
  type: "Scale"
  bottom: "slice348-0"
  bottom: "slice361-0"
  top: "mul362"
  scale_param {
    axis: 0
    bias_term: false
  }
}
layer {
  name: "mul363"
  type: "Scale"
  bottom: "slice348-1"
  bottom: "slice361-1"
  top: "mul363"
  scale_param {
    axis: 0
    bias_term: false
  }
}
layer {
  name: "add364"
  type: "Eltwise"
  bottom: "mul362"
  bottom: "mul363"
  top: "add364"
  eltwise_param {
    operation: SUM
  }
}
layer {
  name: "conv365"
  type: "Convolution"
  bottom: "add364"
  top: "conv365"
  convolution_param {
    num_output: 512
    bias_term: false
    pad: 0
    kernel_size: 1
    stride: 1
  }
}
layer {
  name: "bn366"
  type: "BatchNorm"
  bottom: "conv365"
  top: "conv365"
  batch_norm_param {
    moving_average_fraction: 0.899999976158
    eps: 9.99999974738e-06
  }
}
layer {
  name: "scale366"
  type: "Scale"
  bottom: "conv365"
  top: "conv365"
  scale_param {
    bias_term: true
  }
}
layer {
  name: "add367"
  type: "Eltwise"
  bottom: "conv365"
  bottom: "add340"
  top: "add367"
  eltwise_param {
    operation: SUM
  }
}
layer {
  name: "relu368"
  type: "ReLU"
  bottom: "add367"
  top: "add367"
}
layer {
  name: "conv369"
  type: "Convolution"
  bottom: "add367"
  top: "conv369"
  convolution_param {
    num_output: 128
    bias_term: false
    pad: 0
    kernel_size: 1
    stride: 1
  }
}
layer {
  name: "bn370"
  type: "BatchNorm"
  bottom: "conv369"
  top: "conv369"
  batch_norm_param {
    moving_average_fraction: 0.899999976158
    eps: 9.99999974738e-06
  }
}
layer {
  name: "scale370"
  type: "Scale"
  bottom: "conv369"
  top: "conv369"
  scale_param {
    bias_term: true
  }
}
layer {
  name: "relu371"
  type: "ReLU"
  bottom: "conv369"
  top: "conv369"
}
layer {
  name: "conv372"
  type: "Convolution"
  bottom: "conv369"
  top: "conv372"
  convolution_param {
    num_output: 256
    bias_term: false
    pad: 1
    kernel_size: 3
    group: 2
    stride: 1
  }
}
layer {
  name: "bn373"
  type: "BatchNorm"
  bottom: "conv372"
  top: "conv372"
  batch_norm_param {
    moving_average_fraction: 0.899999976158
    eps: 9.99999974738e-06
  }
}
layer {
  name: "scale373"
  type: "Scale"
  bottom: "conv372"
  top: "conv372"
  scale_param {
    bias_term: true
  }
}
layer {
  name: "relu374"
  type: "ReLU"
  bottom: "conv372"
  top: "conv372"
}
layer {
  name: "slice375"
  type: "Slice"
  bottom: "conv372"
  top: "slice375-0"
  top: "slice375-1"
  slice_param {
    slice_point: 128
    axis: 1
  }
}
layer {
  name: "add376"
  type: "Eltwise"
  bottom: "slice375-0"
  bottom: "slice375-1"
  top: "add376"
  eltwise_param {
    operation: SUM
  }
}
layer {
  name: "pool377"
  type: "Pooling"
  bottom: "add376"
  top: "pool377"
  pooling_param {
    pool: AVE
    global_pooling: true
  }
}
layer {
  name: "conv378"
  type: "Convolution"
  bottom: "pool377"
  top: "conv378"
  convolution_param {
    num_output: 64
    bias_term: true
    pad: 0
    kernel_size: 1
    stride: 1
  }
}
layer {
  name: "bn379"
  type: "BatchNorm"
  bottom: "conv378"
  top: "conv378"
  batch_norm_param {
    moving_average_fraction: 0.899999976158
    eps: 9.99999974738e-06
  }
}
layer {
  name: "scale379"
  type: "Scale"
  bottom: "conv378"
  top: "conv378"
  scale_param {
    bias_term: true
  }
}
layer {
  name: "relu380"
  type: "ReLU"
  bottom: "conv378"
  top: "conv378"
}
layer {
  name: "conv381"
  type: "Convolution"
  bottom: "conv378"
  top: "conv381"
  convolution_param {
    num_output: 256
    bias_term: true
    pad: 0
    kernel_size: 1
    stride: 1
  }
}
layer {
  name: "reshape383"
  type: "Reshape"
  bottom: "conv381"
  top: "reshape383"
  reshape_param {
    shape {
      dim: 0
      dim: 1
      dim: 2
      dim: -1
    }
  }
}
layer {
  name: "perm384"
  type: "Permute"
  bottom: "reshape383"
  top: "perm384"
  permute_param {
    order: 0
    order: 2
    order: 1
    order: 3
  }
}
layer {
  name: "softmax385"
  type: "Softmax"
  bottom: "perm384"
  top: "softmax385"
  softmax_param {
    axis: 1
  }
}
layer {
  name: "reshape387"
  type: "Reshape"
  bottom: "softmax385"
  top: "reshape387"
  reshape_param {
    shape {
      dim: 0
      dim: -1
    }
  }
}
layer {
  name: "slice388"
  type: "Slice"
  bottom: "reshape387"
  top: "slice388-0"
  top: "slice388-1"
  slice_param {
    slice_point: 128
    axis: 1
  }
}
layer {
  name: "mul389"
  type: "Scale"
  bottom: "slice375-0"
  bottom: "slice388-0"
  top: "mul389"
  scale_param {
    axis: 0
    bias_term: false
  }
}
layer {
  name: "mul390"
  type: "Scale"
  bottom: "slice375-1"
  bottom: "slice388-1"
  top: "mul390"
  scale_param {
    axis: 0
    bias_term: false
  }
}
layer {
  name: "add391"
  type: "Eltwise"
  bottom: "mul389"
  bottom: "mul390"
  top: "add391"
  eltwise_param {
    operation: SUM
  }
}
layer {
  name: "conv392"
  type: "Convolution"
  bottom: "add391"
  top: "conv392"
  convolution_param {
    num_output: 512
    bias_term: false
    pad: 0
    kernel_size: 1
    stride: 1
  }
}
layer {
  name: "bn393"
  type: "BatchNorm"
  bottom: "conv392"
  top: "conv392"
  batch_norm_param {
    moving_average_fraction: 0.899999976158
    eps: 9.99999974738e-06
  }
}
layer {
  name: "scale393"
  type: "Scale"
  bottom: "conv392"
  top: "conv392"
  scale_param {
    bias_term: true
  }
}
layer {
  name: "add394"
  type: "Eltwise"
  bottom: "conv392"
  bottom: "add367"
  top: "add394"
  eltwise_param {
    operation: SUM
  }
}
layer {
  name: "relu395"
  type: "ReLU"
  bottom: "add394"
  top: "add394"
}
layer {
  name: "conv396"
  type: "Convolution"
  bottom: "add394"
  top: "conv396"
  convolution_param {
    num_output: 128
    bias_term: false
    pad: 0
    kernel_size: 1
    stride: 1
  }
}
layer {
  name: "bn397"
  type: "BatchNorm"
  bottom: "conv396"
  top: "conv396"
  batch_norm_param {
    moving_average_fraction: 0.899999976158
    eps: 9.99999974738e-06
  }
}
layer {
  name: "scale397"
  type: "Scale"
  bottom: "conv396"
  top: "conv396"
  scale_param {
    bias_term: true
  }
}
layer {
  name: "relu398"
  type: "ReLU"
  bottom: "conv396"
  top: "conv396"
}
layer {
  name: "conv399"
  type: "Convolution"
  bottom: "conv396"
  top: "conv399"
  convolution_param {
    num_output: 256
    bias_term: false
    pad: 1
    kernel_size: 3
    group: 2
    stride: 1
  }
}
layer {
  name: "bn400"
  type: "BatchNorm"
  bottom: "conv399"
  top: "conv399"
  batch_norm_param {
    moving_average_fraction: 0.899999976158
    eps: 9.99999974738e-06
  }
}
layer {
  name: "scale400"
  type: "Scale"
  bottom: "conv399"
  top: "conv399"
  scale_param {
    bias_term: true
  }
}
layer {
  name: "relu401"
  type: "ReLU"
  bottom: "conv399"
  top: "conv399"
}
layer {
  name: "slice402"
  type: "Slice"
  bottom: "conv399"
  top: "slice402-0"
  top: "slice402-1"
  slice_param {
    slice_point: 128
    axis: 1
  }
}
layer {
  name: "add403"
  type: "Eltwise"
  bottom: "slice402-0"
  bottom: "slice402-1"
  top: "add403"
  eltwise_param {
    operation: SUM
  }
}
layer {
  name: "pool404"
  type: "Pooling"
  bottom: "add403"
  top: "pool404"
  pooling_param {
    pool: AVE
    global_pooling: true
  }
}
layer {
  name: "conv405"
  type: "Convolution"
  bottom: "pool404"
  top: "conv405"
  convolution_param {
    num_output: 64
    bias_term: true
    pad: 0
    kernel_size: 1
    stride: 1
  }
}
layer {
  name: "bn406"
  type: "BatchNorm"
  bottom: "conv405"
  top: "conv405"
  batch_norm_param {
    moving_average_fraction: 0.899999976158
    eps: 9.99999974738e-06
  }
}
layer {
  name: "scale406"
  type: "Scale"
  bottom: "conv405"
  top: "conv405"
  scale_param {
    bias_term: true
  }
}
layer {
  name: "relu407"
  type: "ReLU"
  bottom: "conv405"
  top: "conv405"
}
layer {
  name: "conv408"
  type: "Convolution"
  bottom: "conv405"
  top: "conv408"
  convolution_param {
    num_output: 256
    bias_term: true
    pad: 0
    kernel_size: 1
    stride: 1
  }
}
layer {
  name: "reshape410"
  type: "Reshape"
  bottom: "conv408"
  top: "reshape410"
  reshape_param {
    shape {
      dim: 0
      dim: 1
      dim: 2
      dim: -1
    }
  }
}
layer {
  name: "perm411"
  type: "Permute"
  bottom: "reshape410"
  top: "perm411"
  permute_param {
    order: 0
    order: 2
    order: 1
    order: 3
  }
}
layer {
  name: "softmax412"
  type: "Softmax"
  bottom: "perm411"
  top: "softmax412"
  softmax_param {
    axis: 1
  }
}
layer {
  name: "reshape414"
  type: "Reshape"
  bottom: "softmax412"
  top: "reshape414"
  reshape_param {
    shape {
      dim: 0
      dim: -1
    }
  }
}
layer {
  name: "slice415"
  type: "Slice"
  bottom: "reshape414"
  top: "slice415-0"
  top: "slice415-1"
  slice_param {
    slice_point: 128
    axis: 1
  }
}
layer {
  name: "mul416"
  type: "Scale"
  bottom: "slice402-0"
  bottom: "slice415-0"
  top: "mul416"
  scale_param {
    axis: 0
    bias_term: false
  }
}
layer {
  name: "mul417"
  type: "Scale"
  bottom: "slice402-1"
  bottom: "slice415-1"
  top: "mul417"
  scale_param {
    axis: 0
    bias_term: false
  }
}
layer {
  name: "add418"
  type: "Eltwise"
  bottom: "mul416"
  bottom: "mul417"
  top: "add418"
  eltwise_param {
    operation: SUM
  }
}
layer {
  name: "conv419"
  type: "Convolution"
  bottom: "add418"
  top: "conv419"
  convolution_param {
    num_output: 512
    bias_term: false
    pad: 0
    kernel_size: 1
    stride: 1
  }
}
layer {
  name: "bn420"
  type: "BatchNorm"
  bottom: "conv419"
  top: "conv419"
  batch_norm_param {
    moving_average_fraction: 0.899999976158
    eps: 9.99999974738e-06
  }
}
layer {
  name: "scale420"
  type: "Scale"
  bottom: "conv419"
  top: "conv419"
  scale_param {
    bias_term: true
  }
}
layer {
  name: "add421"
  type: "Eltwise"
  bottom: "conv419"
  bottom: "add394"
  top: "add421"
  eltwise_param {
    operation: SUM
  }
}
layer {
  name: "relu422"
  type: "ReLU"
  bottom: "add421"
  top: "add421"
}
layer {
  name: "conv423"
  type: "Convolution"
  bottom: "add421"
  top: "conv423"
  convolution_param {
    num_output: 128
    bias_term: false
    pad: 0
    kernel_size: 1
    stride: 1
  }
}
layer {
  name: "bn424"
  type: "BatchNorm"
  bottom: "conv423"
  top: "conv423"
  batch_norm_param {
    moving_average_fraction: 0.899999976158
    eps: 9.99999974738e-06
  }
}
layer {
  name: "scale424"
  type: "Scale"
  bottom: "conv423"
  top: "conv423"
  scale_param {
    bias_term: true
  }
}
layer {
  name: "relu425"
  type: "ReLU"
  bottom: "conv423"
  top: "conv423"
}
layer {
  name: "conv426"
  type: "Convolution"
  bottom: "conv423"
  top: "conv426"
  convolution_param {
    num_output: 256
    bias_term: false
    pad: 1
    kernel_size: 3
    group: 2
    stride: 1
  }
}
layer {
  name: "bn427"
  type: "BatchNorm"
  bottom: "conv426"
  top: "conv426"
  batch_norm_param {
    moving_average_fraction: 0.899999976158
    eps: 9.99999974738e-06
  }
}
layer {
  name: "scale427"
  type: "Scale"
  bottom: "conv426"
  top: "conv426"
  scale_param {
    bias_term: true
  }
}
layer {
  name: "relu428"
  type: "ReLU"
  bottom: "conv426"
  top: "conv426"
}
layer {
  name: "slice429"
  type: "Slice"
  bottom: "conv426"
  top: "slice429-0"
  top: "slice429-1"
  slice_param {
    slice_point: 128
    axis: 1
  }
}
layer {
  name: "add430"
  type: "Eltwise"
  bottom: "slice429-0"
  bottom: "slice429-1"
  top: "add430"
  eltwise_param {
    operation: SUM
  }
}
layer {
  name: "pool431"
  type: "Pooling"
  bottom: "add430"
  top: "pool431"
  pooling_param {
    pool: AVE
    global_pooling: true
  }
}
layer {
  name: "conv432"
  type: "Convolution"
  bottom: "pool431"
  top: "conv432"
  convolution_param {
    num_output: 64
    bias_term: true
    pad: 0
    kernel_size: 1
    stride: 1
  }
}
layer {
  name: "bn433"
  type: "BatchNorm"
  bottom: "conv432"
  top: "conv432"
  batch_norm_param {
    moving_average_fraction: 0.899999976158
    eps: 9.99999974738e-06
  }
}
layer {
  name: "scale433"
  type: "Scale"
  bottom: "conv432"
  top: "conv432"
  scale_param {
    bias_term: true
  }
}
layer {
  name: "relu434"
  type: "ReLU"
  bottom: "conv432"
  top: "conv432"
}
layer {
  name: "conv435"
  type: "Convolution"
  bottom: "conv432"
  top: "conv435"
  convolution_param {
    num_output: 256
    bias_term: true
    pad: 0
    kernel_size: 1
    stride: 1
  }
}
layer {
  name: "reshape437"
  type: "Reshape"
  bottom: "conv435"
  top: "reshape437"
  reshape_param {
    shape {
      dim: 0
      dim: 1
      dim: 2
      dim: -1
    }
  }
}
layer {
  name: "perm438"
  type: "Permute"
  bottom: "reshape437"
  top: "perm438"
  permute_param {
    order: 0
    order: 2
    order: 1
    order: 3
  }
}
layer {
  name: "softmax439"
  type: "Softmax"
  bottom: "perm438"
  top: "softmax439"
  softmax_param {
    axis: 1
  }
}
layer {
  name: "reshape441"
  type: "Reshape"
  bottom: "softmax439"
  top: "reshape441"
  reshape_param {
    shape {
      dim: 0
      dim: -1
    }
  }
}
layer {
  name: "slice442"
  type: "Slice"
  bottom: "reshape441"
  top: "slice442-0"
  top: "slice442-1"
  slice_param {
    slice_point: 128
    axis: 1
  }
}
layer {
  name: "mul443"
  type: "Scale"
  bottom: "slice429-0"
  bottom: "slice442-0"
  top: "mul443"
  scale_param {
    axis: 0
    bias_term: false
  }
}
layer {
  name: "mul444"
  type: "Scale"
  bottom: "slice429-1"
  bottom: "slice442-1"
  top: "mul444"
  scale_param {
    axis: 0
    bias_term: false
  }
}
layer {
  name: "add445"
  type: "Eltwise"
  bottom: "mul443"
  bottom: "mul444"
  top: "add445"
  eltwise_param {
    operation: SUM
  }
}
layer {
  name: "conv446"
  type: "Convolution"
  bottom: "add445"
  top: "conv446"
  convolution_param {
    num_output: 512
    bias_term: false
    pad: 0
    kernel_size: 1
    stride: 1
  }
}
layer {
  name: "bn447"
  type: "BatchNorm"
  bottom: "conv446"
  top: "conv446"
  batch_norm_param {
    moving_average_fraction: 0.899999976158
    eps: 9.99999974738e-06
  }
}
layer {
  name: "scale447"
  type: "Scale"
  bottom: "conv446"
  top: "conv446"
  scale_param {
    bias_term: true
  }
}
layer {
  name: "add448"
  type: "Eltwise"
  bottom: "conv446"
  bottom: "add421"
  top: "add448"
  eltwise_param {
    operation: SUM
  }
}
layer {
  name: "relu449"
  type: "ReLU"
  bottom: "add448"
  top: "add448"
}
layer {
  name: "conv450"
  type: "Convolution"
  bottom: "add448"
  top: "conv450"
  convolution_param {
    num_output: 128
    bias_term: false
    pad: 0
    kernel_size: 1
    stride: 1
  }
}
layer {
  name: "bn451"
  type: "BatchNorm"
  bottom: "conv450"
  top: "conv450"
  batch_norm_param {
    moving_average_fraction: 0.899999976158
    eps: 9.99999974738e-06
  }
}
layer {
  name: "scale451"
  type: "Scale"
  bottom: "conv450"
  top: "conv450"
  scale_param {
    bias_term: true
  }
}
layer {
  name: "relu452"
  type: "ReLU"
  bottom: "conv450"
  top: "conv450"
}
layer {
  name: "conv453"
  type: "Convolution"
  bottom: "conv450"
  top: "conv453"
  convolution_param {
    num_output: 256
    bias_term: false
    pad: 1
    kernel_size: 3
    group: 2
    stride: 1
  }
}
layer {
  name: "bn454"
  type: "BatchNorm"
  bottom: "conv453"
  top: "conv453"
  batch_norm_param {
    moving_average_fraction: 0.899999976158
    eps: 9.99999974738e-06
  }
}
layer {
  name: "scale454"
  type: "Scale"
  bottom: "conv453"
  top: "conv453"
  scale_param {
    bias_term: true
  }
}
layer {
  name: "relu455"
  type: "ReLU"
  bottom: "conv453"
  top: "conv453"
}
layer {
  name: "slice456"
  type: "Slice"
  bottom: "conv453"
  top: "slice456-0"
  top: "slice456-1"
  slice_param {
    slice_point: 128
    axis: 1
  }
}
layer {
  name: "add457"
  type: "Eltwise"
  bottom: "slice456-0"
  bottom: "slice456-1"
  top: "add457"
  eltwise_param {
    operation: SUM
  }
}
layer {
  name: "pool458"
  type: "Pooling"
  bottom: "add457"
  top: "pool458"
  pooling_param {
    pool: AVE
    global_pooling: true
  }
}
layer {
  name: "conv459"
  type: "Convolution"
  bottom: "pool458"
  top: "conv459"
  convolution_param {
    num_output: 64
    bias_term: true
    pad: 0
    kernel_size: 1
    stride: 1
  }
}
layer {
  name: "bn460"
  type: "BatchNorm"
  bottom: "conv459"
  top: "conv459"
  batch_norm_param {
    moving_average_fraction: 0.899999976158
    eps: 9.99999974738e-06
  }
}
layer {
  name: "scale460"
  type: "Scale"
  bottom: "conv459"
  top: "conv459"
  scale_param {
    bias_term: true
  }
}
layer {
  name: "relu461"
  type: "ReLU"
  bottom: "conv459"
  top: "conv459"
}
layer {
  name: "conv462"
  type: "Convolution"
  bottom: "conv459"
  top: "conv462"
  convolution_param {
    num_output: 256
    bias_term: true
    pad: 0
    kernel_size: 1
    stride: 1
  }
}
layer {
  name: "reshape464"
  type: "Reshape"
  bottom: "conv462"
  top: "reshape464"
  reshape_param {
    shape {
      dim: 0
      dim: 1
      dim: 2
      dim: -1
    }
  }
}
layer {
  name: "perm465"
  type: "Permute"
  bottom: "reshape464"
  top: "perm465"
  permute_param {
    order: 0
    order: 2
    order: 1
    order: 3
  }
}
layer {
  name: "softmax466"
  type: "Softmax"
  bottom: "perm465"
  top: "softmax466"
  softmax_param {
    axis: 1
  }
}
layer {
  name: "reshape468"
  type: "Reshape"
  bottom: "softmax466"
  top: "reshape468"
  reshape_param {
    shape {
      dim: 0
      dim: -1
    }
  }
}
layer {
  name: "slice469"
  type: "Slice"
  bottom: "reshape468"
  top: "slice469-0"
  top: "slice469-1"
  slice_param {
    slice_point: 128
    axis: 1
  }
}
layer {
  name: "mul470"
  type: "Scale"
  bottom: "slice456-0"
  bottom: "slice469-0"
  top: "mul470"
  scale_param {
    axis: 0
    bias_term: false
  }
}
layer {
  name: "mul471"
  type: "Scale"
  bottom: "slice456-1"
  bottom: "slice469-1"
  top: "mul471"
  scale_param {
    axis: 0
    bias_term: false
  }
}
layer {
  name: "add472"
  type: "Eltwise"
  bottom: "mul470"
  bottom: "mul471"
  top: "add472"
  eltwise_param {
    operation: SUM
  }
}
layer {
  name: "conv473"
  type: "Convolution"
  bottom: "add472"
  top: "conv473"
  convolution_param {
    num_output: 512
    bias_term: false
    pad: 0
    kernel_size: 1
    stride: 1
  }
}
layer {
  name: "bn474"
  type: "BatchNorm"
  bottom: "conv473"
  top: "conv473"
  batch_norm_param {
    moving_average_fraction: 0.899999976158
    eps: 9.99999974738e-06
  }
}
layer {
  name: "scale474"
  type: "Scale"
  bottom: "conv473"
  top: "conv473"
  scale_param {
    bias_term: true
  }
}
layer {
  name: "add475"
  type: "Eltwise"
  bottom: "conv473"
  bottom: "add448"
  top: "add475"
  eltwise_param {
    operation: SUM
  }
}
layer {
  name: "relu476"
  type: "ReLU"
  bottom: "add475"
  top: "add475"
}
layer {
  name: "conv477"
  type: "Convolution"
  bottom: "add475"
  top: "conv477"
  convolution_param {
    num_output: 128
    bias_term: false
    pad: 0
    kernel_size: 1
    stride: 1
  }
}
layer {
  name: "bn478"
  type: "BatchNorm"
  bottom: "conv477"
  top: "conv477"
  batch_norm_param {
    moving_average_fraction: 0.899999976158
    eps: 9.99999974738e-06
  }
}
layer {
  name: "scale478"
  type: "Scale"
  bottom: "conv477"
  top: "conv477"
  scale_param {
    bias_term: true
  }
}
layer {
  name: "relu479"
  type: "ReLU"
  bottom: "conv477"
  top: "conv477"
}
layer {
  name: "conv480"
  type: "Convolution"
  bottom: "conv477"
  top: "conv480"
  convolution_param {
    num_output: 256
    bias_term: false
    pad: 1
    kernel_size: 3
    group: 2
    stride: 1
  }
}
layer {
  name: "bn481"
  type: "BatchNorm"
  bottom: "conv480"
  top: "conv480"
  batch_norm_param {
    moving_average_fraction: 0.899999976158
    eps: 9.99999974738e-06
  }
}
layer {
  name: "scale481"
  type: "Scale"
  bottom: "conv480"
  top: "conv480"
  scale_param {
    bias_term: true
  }
}
layer {
  name: "relu482"
  type: "ReLU"
  bottom: "conv480"
  top: "conv480"
}
layer {
  name: "slice483"
  type: "Slice"
  bottom: "conv480"
  top: "slice483-0"
  top: "slice483-1"
  slice_param {
    slice_point: 128
    axis: 1
  }
}
layer {
  name: "add484"
  type: "Eltwise"
  bottom: "slice483-0"
  bottom: "slice483-1"
  top: "add484"
  eltwise_param {
    operation: SUM
  }
}
layer {
  name: "pool485"
  type: "Pooling"
  bottom: "add484"
  top: "pool485"
  pooling_param {
    pool: AVE
    global_pooling: true
  }
}
layer {
  name: "conv486"
  type: "Convolution"
  bottom: "pool485"
  top: "conv486"
  convolution_param {
    num_output: 64
    bias_term: true
    pad: 0
    kernel_size: 1
    stride: 1
  }
}
layer {
  name: "bn487"
  type: "BatchNorm"
  bottom: "conv486"
  top: "conv486"
  batch_norm_param {
    moving_average_fraction: 0.899999976158
    eps: 9.99999974738e-06
  }
}
layer {
  name: "scale487"
  type: "Scale"
  bottom: "conv486"
  top: "conv486"
  scale_param {
    bias_term: true
  }
}
layer {
  name: "relu488"
  type: "ReLU"
  bottom: "conv486"
  top: "conv486"
}
layer {
  name: "conv489"
  type: "Convolution"
  bottom: "conv486"
  top: "conv489"
  convolution_param {
    num_output: 256
    bias_term: true
    pad: 0
    kernel_size: 1
    stride: 1
  }
}
layer {
  name: "reshape491"
  type: "Reshape"
  bottom: "conv489"
  top: "reshape491"
  reshape_param {
    shape {
      dim: 0
      dim: 1
      dim: 2
      dim: -1
    }
  }
}
layer {
  name: "perm492"
  type: "Permute"
  bottom: "reshape491"
  top: "perm492"
  permute_param {
    order: 0
    order: 2
    order: 1
    order: 3
  }
}
layer {
  name: "softmax493"
  type: "Softmax"
  bottom: "perm492"
  top: "softmax493"
  softmax_param {
    axis: 1
  }
}
layer {
  name: "reshape495"
  type: "Reshape"
  bottom: "softmax493"
  top: "reshape495"
  reshape_param {
    shape {
      dim: 0
      dim: -1
    }
  }
}
layer {
  name: "slice496"
  type: "Slice"
  bottom: "reshape495"
  top: "slice496-0"
  top: "slice496-1"
  slice_param {
    slice_point: 128
    axis: 1
  }
}
layer {
  name: "mul497"
  type: "Scale"
  bottom: "slice483-0"
  bottom: "slice496-0"
  top: "mul497"
  scale_param {
    axis: 0
    bias_term: false
  }
}
layer {
  name: "mul498"
  type: "Scale"
  bottom: "slice483-1"
  bottom: "slice496-1"
  top: "mul498"
  scale_param {
    axis: 0
    bias_term: false
  }
}
layer {
  name: "add499"
  type: "Eltwise"
  bottom: "mul497"
  bottom: "mul498"
  top: "add499"
  eltwise_param {
    operation: SUM
  }
}
layer {
  name: "conv500"
  type: "Convolution"
  bottom: "add499"
  top: "conv500"
  convolution_param {
    num_output: 512
    bias_term: false
    pad: 0
    kernel_size: 1
    stride: 1
  }
}
layer {
  name: "bn501"
  type: "BatchNorm"
  bottom: "conv500"
  top: "conv500"
  batch_norm_param {
    moving_average_fraction: 0.899999976158
    eps: 9.99999974738e-06
  }
}
layer {
  name: "scale501"
  type: "Scale"
  bottom: "conv500"
  top: "conv500"
  scale_param {
    bias_term: true
  }
}
layer {
  name: "add502"
  type: "Eltwise"
  bottom: "conv500"
  bottom: "add475"
  top: "add502"
  eltwise_param {
    operation: SUM
  }
}
layer {
  name: "relu503"
  type: "ReLU"
  bottom: "add502"
  top: "add502"
}
layer {
  name: "conv504"
  type: "Convolution"
  bottom: "add502"
  top: "conv504"
  convolution_param {
    num_output: 128
    bias_term: false
    pad: 0
    kernel_size: 1
    stride: 1
  }
}
layer {
  name: "bn505"
  type: "BatchNorm"
  bottom: "conv504"
  top: "conv504"
  batch_norm_param {
    moving_average_fraction: 0.899999976158
    eps: 9.99999974738e-06
  }
}
layer {
  name: "scale505"
  type: "Scale"
  bottom: "conv504"
  top: "conv504"
  scale_param {
    bias_term: true
  }
}
layer {
  name: "relu506"
  type: "ReLU"
  bottom: "conv504"
  top: "conv504"
}
layer {
  name: "conv507"
  type: "Convolution"
  bottom: "conv504"
  top: "conv507"
  convolution_param {
    num_output: 256
    bias_term: false
    pad: 1
    kernel_size: 3
    group: 2
    stride: 1
  }
}
layer {
  name: "bn508"
  type: "BatchNorm"
  bottom: "conv507"
  top: "conv507"
  batch_norm_param {
    moving_average_fraction: 0.899999976158
    eps: 9.99999974738e-06
  }
}
layer {
  name: "scale508"
  type: "Scale"
  bottom: "conv507"
  top: "conv507"
  scale_param {
    bias_term: true
  }
}
layer {
  name: "relu509"
  type: "ReLU"
  bottom: "conv507"
  top: "conv507"
}
layer {
  name: "slice510"
  type: "Slice"
  bottom: "conv507"
  top: "slice510-0"
  top: "slice510-1"
  slice_param {
    slice_point: 128
    axis: 1
  }
}
layer {
  name: "add511"
  type: "Eltwise"
  bottom: "slice510-0"
  bottom: "slice510-1"
  top: "add511"
  eltwise_param {
    operation: SUM
  }
}
layer {
  name: "pool512"
  type: "Pooling"
  bottom: "add511"
  top: "pool512"
  pooling_param {
    pool: AVE
    global_pooling: true
  }
}
layer {
  name: "conv513"
  type: "Convolution"
  bottom: "pool512"
  top: "conv513"
  convolution_param {
    num_output: 64
    bias_term: true
    pad: 0
    kernel_size: 1
    stride: 1
  }
}
layer {
  name: "bn514"
  type: "BatchNorm"
  bottom: "conv513"
  top: "conv513"
  batch_norm_param {
    moving_average_fraction: 0.899999976158
    eps: 9.99999974738e-06
  }
}
layer {
  name: "scale514"
  type: "Scale"
  bottom: "conv513"
  top: "conv513"
  scale_param {
    bias_term: true
  }
}
layer {
  name: "relu515"
  type: "ReLU"
  bottom: "conv513"
  top: "conv513"
}
layer {
  name: "conv516"
  type: "Convolution"
  bottom: "conv513"
  top: "conv516"
  convolution_param {
    num_output: 256
    bias_term: true
    pad: 0
    kernel_size: 1
    stride: 1
  }
}
layer {
  name: "reshape518"
  type: "Reshape"
  bottom: "conv516"
  top: "reshape518"
  reshape_param {
    shape {
      dim: 0
      dim: 1
      dim: 2
      dim: -1
    }
  }
}
layer {
  name: "perm519"
  type: "Permute"
  bottom: "reshape518"
  top: "perm519"
  permute_param {
    order: 0
    order: 2
    order: 1
    order: 3
  }
}
layer {
  name: "softmax520"
  type: "Softmax"
  bottom: "perm519"
  top: "softmax520"
  softmax_param {
    axis: 1
  }
}
layer {
  name: "reshape522"
  type: "Reshape"
  bottom: "softmax520"
  top: "reshape522"
  reshape_param {
    shape {
      dim: 0
      dim: -1
    }
  }
}
layer {
  name: "slice523"
  type: "Slice"
  bottom: "reshape522"
  top: "slice523-0"
  top: "slice523-1"
  slice_param {
    slice_point: 128
    axis: 1
  }
}
layer {
  name: "mul524"
  type: "Scale"
  bottom: "slice510-0"
  bottom: "slice523-0"
  top: "mul524"
  scale_param {
    axis: 0
    bias_term: false
  }
}
layer {
  name: "mul525"
  type: "Scale"
  bottom: "slice510-1"
  bottom: "slice523-1"
  top: "mul525"
  scale_param {
    axis: 0
    bias_term: false
  }
}
layer {
  name: "add526"
  type: "Eltwise"
  bottom: "mul524"
  bottom: "mul525"
  top: "add526"
  eltwise_param {
    operation: SUM
  }
}
layer {
  name: "conv527"
  type: "Convolution"
  bottom: "add526"
  top: "conv527"
  convolution_param {
    num_output: 512
    bias_term: false
    pad: 0
    kernel_size: 1
    stride: 1
  }
}
layer {
  name: "bn528"
  type: "BatchNorm"
  bottom: "conv527"
  top: "conv527"
  batch_norm_param {
    moving_average_fraction: 0.899999976158
    eps: 9.99999974738e-06
  }
}
layer {
  name: "scale528"
  type: "Scale"
  bottom: "conv527"
  top: "conv527"
  scale_param {
    bias_term: true
  }
}
layer {
  name: "add529"
  type: "Eltwise"
  bottom: "conv527"
  bottom: "add502"
  top: "add529"
  eltwise_param {
    operation: SUM
  }
}
layer {
  name: "relu530"
  type: "ReLU"
  bottom: "add529"
  top: "add529"
}
layer {
  name: "conv531"
  type: "Convolution"
  bottom: "add529"
  top: "conv531"
  convolution_param {
    num_output: 128
    bias_term: false
    pad: 0
    kernel_size: 1
    stride: 1
  }
}
layer {
  name: "bn532"
  type: "BatchNorm"
  bottom: "conv531"
  top: "conv531"
  batch_norm_param {
    moving_average_fraction: 0.899999976158
    eps: 9.99999974738e-06
  }
}
layer {
  name: "scale532"
  type: "Scale"
  bottom: "conv531"
  top: "conv531"
  scale_param {
    bias_term: true
  }
}
layer {
  name: "relu533"
  type: "ReLU"
  bottom: "conv531"
  top: "conv531"
}
layer {
  name: "conv534"
  type: "Convolution"
  bottom: "conv531"
  top: "conv534"
  convolution_param {
    num_output: 256
    bias_term: false
    pad: 1
    kernel_size: 3
    group: 2
    stride: 1
  }
}
layer {
  name: "bn535"
  type: "BatchNorm"
  bottom: "conv534"
  top: "conv534"
  batch_norm_param {
    moving_average_fraction: 0.899999976158
    eps: 9.99999974738e-06
  }
}
layer {
  name: "scale535"
  type: "Scale"
  bottom: "conv534"
  top: "conv534"
  scale_param {
    bias_term: true
  }
}
layer {
  name: "relu536"
  type: "ReLU"
  bottom: "conv534"
  top: "conv534"
}
layer {
  name: "slice537"
  type: "Slice"
  bottom: "conv534"
  top: "slice537-0"
  top: "slice537-1"
  slice_param {
    slice_point: 128
    axis: 1
  }
}
layer {
  name: "add538"
  type: "Eltwise"
  bottom: "slice537-0"
  bottom: "slice537-1"
  top: "add538"
  eltwise_param {
    operation: SUM
  }
}
layer {
  name: "pool539"
  type: "Pooling"
  bottom: "add538"
  top: "pool539"
  pooling_param {
    pool: AVE
    global_pooling: true
  }
}
layer {
  name: "conv540"
  type: "Convolution"
  bottom: "pool539"
  top: "conv540"
  convolution_param {
    num_output: 64
    bias_term: true
    pad: 0
    kernel_size: 1
    stride: 1
  }
}
layer {
  name: "bn541"
  type: "BatchNorm"
  bottom: "conv540"
  top: "conv540"
  batch_norm_param {
    moving_average_fraction: 0.899999976158
    eps: 9.99999974738e-06
  }
}
layer {
  name: "scale541"
  type: "Scale"
  bottom: "conv540"
  top: "conv540"
  scale_param {
    bias_term: true
  }
}
layer {
  name: "relu542"
  type: "ReLU"
  bottom: "conv540"
  top: "conv540"
}
layer {
  name: "conv543"
  type: "Convolution"
  bottom: "conv540"
  top: "conv543"
  convolution_param {
    num_output: 256
    bias_term: true
    pad: 0
    kernel_size: 1
    stride: 1
  }
}
layer {
  name: "reshape545"
  type: "Reshape"
  bottom: "conv543"
  top: "reshape545"
  reshape_param {
    shape {
      dim: 0
      dim: 1
      dim: 2
      dim: -1
    }
  }
}
layer {
  name: "perm546"
  type: "Permute"
  bottom: "reshape545"
  top: "perm546"
  permute_param {
    order: 0
    order: 2
    order: 1
    order: 3
  }
}
layer {
  name: "softmax547"
  type: "Softmax"
  bottom: "perm546"
  top: "softmax547"
  softmax_param {
    axis: 1
  }
}
layer {
  name: "reshape549"
  type: "Reshape"
  bottom: "softmax547"
  top: "reshape549"
  reshape_param {
    shape {
      dim: 0
      dim: -1
    }
  }
}
layer {
  name: "slice550"
  type: "Slice"
  bottom: "reshape549"
  top: "slice550-0"
  top: "slice550-1"
  slice_param {
    slice_point: 128
    axis: 1
  }
}
layer {
  name: "mul551"
  type: "Scale"
  bottom: "slice537-0"
  bottom: "slice550-0"
  top: "mul551"
  scale_param {
    axis: 0
    bias_term: false
  }
}
layer {
  name: "mul552"
  type: "Scale"
  bottom: "slice537-1"
  bottom: "slice550-1"
  top: "mul552"
  scale_param {
    axis: 0
    bias_term: false
  }
}
layer {
  name: "add553"
  type: "Eltwise"
  bottom: "mul551"
  bottom: "mul552"
  top: "add553"
  eltwise_param {
    operation: SUM
  }
}
layer {
  name: "conv554"
  type: "Convolution"
  bottom: "add553"
  top: "conv554"
  convolution_param {
    num_output: 512
    bias_term: false
    pad: 0
    kernel_size: 1
    stride: 1
  }
}
layer {
  name: "bn555"
  type: "BatchNorm"
  bottom: "conv554"
  top: "conv554"
  batch_norm_param {
    moving_average_fraction: 0.899999976158
    eps: 9.99999974738e-06
  }
}
layer {
  name: "scale555"
  type: "Scale"
  bottom: "conv554"
  top: "conv554"
  scale_param {
    bias_term: true
  }
}
layer {
  name: "add556"
  type: "Eltwise"
  bottom: "conv554"
  bottom: "add529"
  top: "add556"
  eltwise_param {
    operation: SUM
  }
}
layer {
  name: "relu557"
  type: "ReLU"
  bottom: "add556"
  top: "add556"
}
layer {
  name: "conv558"
  type: "Convolution"
  bottom: "add556"
  top: "conv558"
  convolution_param {
    num_output: 128
    bias_term: false
    pad: 0
    kernel_size: 1
    stride: 1
  }
}
layer {
  name: "bn559"
  type: "BatchNorm"
  bottom: "conv558"
  top: "conv558"
  batch_norm_param {
    moving_average_fraction: 0.899999976158
    eps: 9.99999974738e-06
  }
}
layer {
  name: "scale559"
  type: "Scale"
  bottom: "conv558"
  top: "conv558"
  scale_param {
    bias_term: true
  }
}
layer {
  name: "relu560"
  type: "ReLU"
  bottom: "conv558"
  top: "conv558"
}
layer {
  name: "conv561"
  type: "Convolution"
  bottom: "conv558"
  top: "conv561"
  convolution_param {
    num_output: 256
    bias_term: false
    pad: 1
    kernel_size: 3
    group: 2
    stride: 1
  }
}
layer {
  name: "bn562"
  type: "BatchNorm"
  bottom: "conv561"
  top: "conv561"
  batch_norm_param {
    moving_average_fraction: 0.899999976158
    eps: 9.99999974738e-06
  }
}
layer {
  name: "scale562"
  type: "Scale"
  bottom: "conv561"
  top: "conv561"
  scale_param {
    bias_term: true
  }
}
layer {
  name: "relu563"
  type: "ReLU"
  bottom: "conv561"
  top: "conv561"
}
layer {
  name: "slice564"
  type: "Slice"
  bottom: "conv561"
  top: "slice564-0"
  top: "slice564-1"
  slice_param {
    slice_point: 128
    axis: 1
  }
}
layer {
  name: "add565"
  type: "Eltwise"
  bottom: "slice564-0"
  bottom: "slice564-1"
  top: "add565"
  eltwise_param {
    operation: SUM
  }
}
layer {
  name: "pool566"
  type: "Pooling"
  bottom: "add565"
  top: "pool566"
  pooling_param {
    pool: AVE
    global_pooling: true
  }
}
layer {
  name: "conv567"
  type: "Convolution"
  bottom: "pool566"
  top: "conv567"
  convolution_param {
    num_output: 64
    bias_term: true
    pad: 0
    kernel_size: 1
    stride: 1
  }
}
layer {
  name: "bn568"
  type: "BatchNorm"
  bottom: "conv567"
  top: "conv567"
  batch_norm_param {
    moving_average_fraction: 0.899999976158
    eps: 9.99999974738e-06
  }
}
layer {
  name: "scale568"
  type: "Scale"
  bottom: "conv567"
  top: "conv567"
  scale_param {
    bias_term: true
  }
}
layer {
  name: "relu569"
  type: "ReLU"
  bottom: "conv567"
  top: "conv567"
}
layer {
  name: "conv570"
  type: "Convolution"
  bottom: "conv567"
  top: "conv570"
  convolution_param {
    num_output: 256
    bias_term: true
    pad: 0
    kernel_size: 1
    stride: 1
  }
}
layer {
  name: "reshape572"
  type: "Reshape"
  bottom: "conv570"
  top: "reshape572"
  reshape_param {
    shape {
      dim: 0
      dim: 1
      dim: 2
      dim: -1
    }
  }
}
layer {
  name: "perm573"
  type: "Permute"
  bottom: "reshape572"
  top: "perm573"
  permute_param {
    order: 0
    order: 2
    order: 1
    order: 3
  }
}
layer {
  name: "softmax574"
  type: "Softmax"
  bottom: "perm573"
  top: "softmax574"
  softmax_param {
    axis: 1
  }
}
layer {
  name: "reshape576"
  type: "Reshape"
  bottom: "softmax574"
  top: "reshape576"
  reshape_param {
    shape {
      dim: 0
      dim: -1
    }
  }
}
layer {
  name: "slice577"
  type: "Slice"
  bottom: "reshape576"
  top: "slice577-0"
  top: "slice577-1"
  slice_param {
    slice_point: 128
    axis: 1
  }
}
layer {
  name: "mul578"
  type: "Scale"
  bottom: "slice564-0"
  bottom: "slice577-0"
  top: "mul578"
  scale_param {
    axis: 0
    bias_term: false
  }
}
layer {
  name: "mul579"
  type: "Scale"
  bottom: "slice564-1"
  bottom: "slice577-1"
  top: "mul579"
  scale_param {
    axis: 0
    bias_term: false
  }
}
layer {
  name: "add580"
  type: "Eltwise"
  bottom: "mul578"
  bottom: "mul579"
  top: "add580"
  eltwise_param {
    operation: SUM
  }
}
layer {
  name: "conv581"
  type: "Convolution"
  bottom: "add580"
  top: "conv581"
  convolution_param {
    num_output: 512
    bias_term: false
    pad: 0
    kernel_size: 1
    stride: 1
  }
}
layer {
  name: "bn582"
  type: "BatchNorm"
  bottom: "conv581"
  top: "conv581"
  batch_norm_param {
    moving_average_fraction: 0.899999976158
    eps: 9.99999974738e-06
  }
}
layer {
  name: "scale582"
  type: "Scale"
  bottom: "conv581"
  top: "conv581"
  scale_param {
    bias_term: true
  }
}
layer {
  name: "add583"
  type: "Eltwise"
  bottom: "conv581"
  bottom: "add556"
  top: "add583"
  eltwise_param {
    operation: SUM
  }
}
layer {
  name: "relu584"
  type: "ReLU"
  bottom: "add583"
  top: "add583"
}
layer {
  name: "conv585"
  type: "Convolution"
  bottom: "add583"
  top: "conv585"
  convolution_param {
    num_output: 128
    bias_term: false
    pad: 0
    kernel_size: 1
    stride: 1
  }
}
layer {
  name: "bn586"
  type: "BatchNorm"
  bottom: "conv585"
  top: "conv585"
  batch_norm_param {
    moving_average_fraction: 0.899999976158
    eps: 9.99999974738e-06
  }
}
layer {
  name: "scale586"
  type: "Scale"
  bottom: "conv585"
  top: "conv585"
  scale_param {
    bias_term: true
  }
}
layer {
  name: "relu587"
  type: "ReLU"
  bottom: "conv585"
  top: "conv585"
}
layer {
  name: "conv588"
  type: "Convolution"
  bottom: "conv585"
  top: "conv588"
  convolution_param {
    num_output: 256
    bias_term: false
    pad: 1
    kernel_size: 3
    group: 2
    stride: 1
  }
}
layer {
  name: "bn589"
  type: "BatchNorm"
  bottom: "conv588"
  top: "conv588"
  batch_norm_param {
    moving_average_fraction: 0.899999976158
    eps: 9.99999974738e-06
  }
}
layer {
  name: "scale589"
  type: "Scale"
  bottom: "conv588"
  top: "conv588"
  scale_param {
    bias_term: true
  }
}
layer {
  name: "relu590"
  type: "ReLU"
  bottom: "conv588"
  top: "conv588"
}
layer {
  name: "slice591"
  type: "Slice"
  bottom: "conv588"
  top: "slice591-0"
  top: "slice591-1"
  slice_param {
    slice_point: 128
    axis: 1
  }
}
layer {
  name: "add592"
  type: "Eltwise"
  bottom: "slice591-0"
  bottom: "slice591-1"
  top: "add592"
  eltwise_param {
    operation: SUM
  }
}
layer {
  name: "pool593"
  type: "Pooling"
  bottom: "add592"
  top: "pool593"
  pooling_param {
    pool: AVE
    global_pooling: true
  }
}
layer {
  name: "conv594"
  type: "Convolution"
  bottom: "pool593"
  top: "conv594"
  convolution_param {
    num_output: 64
    bias_term: true
    pad: 0
    kernel_size: 1
    stride: 1
  }
}
layer {
  name: "bn595"
  type: "BatchNorm"
  bottom: "conv594"
  top: "conv594"
  batch_norm_param {
    moving_average_fraction: 0.899999976158
    eps: 9.99999974738e-06
  }
}
layer {
  name: "scale595"
  type: "Scale"
  bottom: "conv594"
  top: "conv594"
  scale_param {
    bias_term: true
  }
}
layer {
  name: "relu596"
  type: "ReLU"
  bottom: "conv594"
  top: "conv594"
}
layer {
  name: "conv597"
  type: "Convolution"
  bottom: "conv594"
  top: "conv597"
  convolution_param {
    num_output: 256
    bias_term: true
    pad: 0
    kernel_size: 1
    stride: 1
  }
}
layer {
  name: "reshape599"
  type: "Reshape"
  bottom: "conv597"
  top: "reshape599"
  reshape_param {
    shape {
      dim: 0
      dim: 1
      dim: 2
      dim: -1
    }
  }
}
layer {
  name: "perm600"
  type: "Permute"
  bottom: "reshape599"
  top: "perm600"
  permute_param {
    order: 0
    order: 2
    order: 1
    order: 3
  }
}
layer {
  name: "softmax601"
  type: "Softmax"
  bottom: "perm600"
  top: "softmax601"
  softmax_param {
    axis: 1
  }
}
layer {
  name: "reshape603"
  type: "Reshape"
  bottom: "softmax601"
  top: "reshape603"
  reshape_param {
    shape {
      dim: 0
      dim: -1
    }
  }
}
layer {
  name: "slice604"
  type: "Slice"
  bottom: "reshape603"
  top: "slice604-0"
  top: "slice604-1"
  slice_param {
    slice_point: 128
    axis: 1
  }
}
layer {
  name: "mul605"
  type: "Scale"
  bottom: "slice591-0"
  bottom: "slice604-0"
  top: "mul605"
  scale_param {
    axis: 0
    bias_term: false
  }
}
layer {
  name: "mul606"
  type: "Scale"
  bottom: "slice591-1"
  bottom: "slice604-1"
  top: "mul606"
  scale_param {
    axis: 0
    bias_term: false
  }
}
layer {
  name: "add607"
  type: "Eltwise"
  bottom: "mul605"
  bottom: "mul606"
  top: "add607"
  eltwise_param {
    operation: SUM
  }
}
layer {
  name: "conv608"
  type: "Convolution"
  bottom: "add607"
  top: "conv608"
  convolution_param {
    num_output: 512
    bias_term: false
    pad: 0
    kernel_size: 1
    stride: 1
  }
}
layer {
  name: "bn609"
  type: "BatchNorm"
  bottom: "conv608"
  top: "conv608"
  batch_norm_param {
    moving_average_fraction: 0.899999976158
    eps: 9.99999974738e-06
  }
}
layer {
  name: "scale609"
  type: "Scale"
  bottom: "conv608"
  top: "conv608"
  scale_param {
    bias_term: true
  }
}
layer {
  name: "add610"
  type: "Eltwise"
  bottom: "conv608"
  bottom: "add583"
  top: "add610"
  eltwise_param {
    operation: SUM
  }
}
layer {
  name: "relu611"
  type: "ReLU"
  bottom: "add610"
  top: "add610"
}
layer {
  name: "conv612"
  type: "Convolution"
  bottom: "add610"
  top: "conv612"
  convolution_param {
    num_output: 128
    bias_term: false
    pad: 0
    kernel_size: 1
    stride: 1
  }
}
layer {
  name: "bn613"
  type: "BatchNorm"
  bottom: "conv612"
  top: "conv612"
  batch_norm_param {
    moving_average_fraction: 0.899999976158
    eps: 9.99999974738e-06
  }
}
layer {
  name: "scale613"
  type: "Scale"
  bottom: "conv612"
  top: "conv612"
  scale_param {
    bias_term: true
  }
}
layer {
  name: "relu614"
  type: "ReLU"
  bottom: "conv612"
  top: "conv612"
}
layer {
  name: "conv615"
  type: "Convolution"
  bottom: "conv612"
  top: "conv615"
  convolution_param {
    num_output: 256
    bias_term: false
    pad: 1
    kernel_size: 3
    group: 2
    stride: 1
  }
}
layer {
  name: "bn616"
  type: "BatchNorm"
  bottom: "conv615"
  top: "conv615"
  batch_norm_param {
    moving_average_fraction: 0.899999976158
    eps: 9.99999974738e-06
  }
}
layer {
  name: "scale616"
  type: "Scale"
  bottom: "conv615"
  top: "conv615"
  scale_param {
    bias_term: true
  }
}
layer {
  name: "relu617"
  type: "ReLU"
  bottom: "conv615"
  top: "conv615"
}
layer {
  name: "slice618"
  type: "Slice"
  bottom: "conv615"
  top: "slice618-0"
  top: "slice618-1"
  slice_param {
    slice_point: 128
    axis: 1
  }
}
layer {
  name: "add619"
  type: "Eltwise"
  bottom: "slice618-0"
  bottom: "slice618-1"
  top: "add619"
  eltwise_param {
    operation: SUM
  }
}
layer {
  name: "pool620"
  type: "Pooling"
  bottom: "add619"
  top: "pool620"
  pooling_param {
    pool: AVE
    global_pooling: true
  }
}
layer {
  name: "conv621"
  type: "Convolution"
  bottom: "pool620"
  top: "conv621"
  convolution_param {
    num_output: 64
    bias_term: true
    pad: 0
    kernel_size: 1
    stride: 1
  }
}
layer {
  name: "bn622"
  type: "BatchNorm"
  bottom: "conv621"
  top: "conv621"
  batch_norm_param {
    moving_average_fraction: 0.899999976158
    eps: 9.99999974738e-06
  }
}
layer {
  name: "scale622"
  type: "Scale"
  bottom: "conv621"
  top: "conv621"
  scale_param {
    bias_term: true
  }
}
layer {
  name: "relu623"
  type: "ReLU"
  bottom: "conv621"
  top: "conv621"
}
layer {
  name: "conv624"
  type: "Convolution"
  bottom: "conv621"
  top: "conv624"
  convolution_param {
    num_output: 256
    bias_term: true
    pad: 0
    kernel_size: 1
    stride: 1
  }
}
layer {
  name: "reshape626"
  type: "Reshape"
  bottom: "conv624"
  top: "reshape626"
  reshape_param {
    shape {
      dim: 0
      dim: 1
      dim: 2
      dim: -1
    }
  }
}
layer {
  name: "perm627"
  type: "Permute"
  bottom: "reshape626"
  top: "perm627"
  permute_param {
    order: 0
    order: 2
    order: 1
    order: 3
  }
}
layer {
  name: "softmax628"
  type: "Softmax"
  bottom: "perm627"
  top: "softmax628"
  softmax_param {
    axis: 1
  }
}
layer {
  name: "reshape630"
  type: "Reshape"
  bottom: "softmax628"
  top: "reshape630"
  reshape_param {
    shape {
      dim: 0
      dim: -1
    }
  }
}
layer {
  name: "slice631"
  type: "Slice"
  bottom: "reshape630"
  top: "slice631-0"
  top: "slice631-1"
  slice_param {
    slice_point: 128
    axis: 1
  }
}
layer {
  name: "mul632"
  type: "Scale"
  bottom: "slice618-0"
  bottom: "slice631-0"
  top: "mul632"
  scale_param {
    axis: 0
    bias_term: false
  }
}
layer {
  name: "mul633"
  type: "Scale"
  bottom: "slice618-1"
  bottom: "slice631-1"
  top: "mul633"
  scale_param {
    axis: 0
    bias_term: false
  }
}
layer {
  name: "add634"
  type: "Eltwise"
  bottom: "mul632"
  bottom: "mul633"
  top: "add634"
  eltwise_param {
    operation: SUM
  }
}
layer {
  name: "conv635"
  type: "Convolution"
  bottom: "add634"
  top: "conv635"
  convolution_param {
    num_output: 512
    bias_term: false
    pad: 0
    kernel_size: 1
    stride: 1
  }
}
layer {
  name: "bn636"
  type: "BatchNorm"
  bottom: "conv635"
  top: "conv635"
  batch_norm_param {
    moving_average_fraction: 0.899999976158
    eps: 9.99999974738e-06
  }
}
layer {
  name: "scale636"
  type: "Scale"
  bottom: "conv635"
  top: "conv635"
  scale_param {
    bias_term: true
  }
}
layer {
  name: "add637"
  type: "Eltwise"
  bottom: "conv635"
  bottom: "add610"
  top: "add637"
  eltwise_param {
    operation: SUM
  }
}
layer {
  name: "relu638"
  type: "ReLU"
  bottom: "add637"
  top: "add637"
}
layer {
  name: "conv639"
  type: "Convolution"
  bottom: "add637"
  top: "conv639"
  convolution_param {
    num_output: 128
    bias_term: false
    pad: 0
    kernel_size: 1
    stride: 1
  }
}
layer {
  name: "bn640"
  type: "BatchNorm"
  bottom: "conv639"
  top: "conv639"
  batch_norm_param {
    moving_average_fraction: 0.899999976158
    eps: 9.99999974738e-06
  }
}
layer {
  name: "scale640"
  type: "Scale"
  bottom: "conv639"
  top: "conv639"
  scale_param {
    bias_term: true
  }
}
layer {
  name: "relu641"
  type: "ReLU"
  bottom: "conv639"
  top: "conv639"
}
layer {
  name: "conv642"
  type: "Convolution"
  bottom: "conv639"
  top: "conv642"
  convolution_param {
    num_output: 256
    bias_term: false
    pad: 1
    kernel_size: 3
    group: 2
    stride: 1
  }
}
layer {
  name: "bn643"
  type: "BatchNorm"
  bottom: "conv642"
  top: "conv642"
  batch_norm_param {
    moving_average_fraction: 0.899999976158
    eps: 9.99999974738e-06
  }
}
layer {
  name: "scale643"
  type: "Scale"
  bottom: "conv642"
  top: "conv642"
  scale_param {
    bias_term: true
  }
}
layer {
  name: "relu644"
  type: "ReLU"
  bottom: "conv642"
  top: "conv642"
}
layer {
  name: "slice645"
  type: "Slice"
  bottom: "conv642"
  top: "slice645-0"
  top: "slice645-1"
  slice_param {
    slice_point: 128
    axis: 1
  }
}
layer {
  name: "add646"
  type: "Eltwise"
  bottom: "slice645-0"
  bottom: "slice645-1"
  top: "add646"
  eltwise_param {
    operation: SUM
  }
}
layer {
  name: "pool647"
  type: "Pooling"
  bottom: "add646"
  top: "pool647"
  pooling_param {
    pool: AVE
    global_pooling: true
  }
}
layer {
  name: "conv648"
  type: "Convolution"
  bottom: "pool647"
  top: "conv648"
  convolution_param {
    num_output: 64
    bias_term: true
    pad: 0
    kernel_size: 1
    stride: 1
  }
}
layer {
  name: "bn649"
  type: "BatchNorm"
  bottom: "conv648"
  top: "conv648"
  batch_norm_param {
    moving_average_fraction: 0.899999976158
    eps: 9.99999974738e-06
  }
}
layer {
  name: "scale649"
  type: "Scale"
  bottom: "conv648"
  top: "conv648"
  scale_param {
    bias_term: true
  }
}
layer {
  name: "relu650"
  type: "ReLU"
  bottom: "conv648"
  top: "conv648"
}
layer {
  name: "conv651"
  type: "Convolution"
  bottom: "conv648"
  top: "conv651"
  convolution_param {
    num_output: 256
    bias_term: true
    pad: 0
    kernel_size: 1
    stride: 1
  }
}
layer {
  name: "reshape653"
  type: "Reshape"
  bottom: "conv651"
  top: "reshape653"
  reshape_param {
    shape {
      dim: 0
      dim: 1
      dim: 2
      dim: -1
    }
  }
}
layer {
  name: "perm654"
  type: "Permute"
  bottom: "reshape653"
  top: "perm654"
  permute_param {
    order: 0
    order: 2
    order: 1
    order: 3
  }
}
layer {
  name: "softmax655"
  type: "Softmax"
  bottom: "perm654"
  top: "softmax655"
  softmax_param {
    axis: 1
  }
}
layer {
  name: "reshape657"
  type: "Reshape"
  bottom: "softmax655"
  top: "reshape657"
  reshape_param {
    shape {
      dim: 0
      dim: -1
    }
  }
}
layer {
  name: "slice658"
  type: "Slice"
  bottom: "reshape657"
  top: "slice658-0"
  top: "slice658-1"
  slice_param {
    slice_point: 128
    axis: 1
  }
}
layer {
  name: "mul659"
  type: "Scale"
  bottom: "slice645-0"
  bottom: "slice658-0"
  top: "mul659"
  scale_param {
    axis: 0
    bias_term: false
  }
}
layer {
  name: "mul660"
  type: "Scale"
  bottom: "slice645-1"
  bottom: "slice658-1"
  top: "mul660"
  scale_param {
    axis: 0
    bias_term: false
  }
}
layer {
  name: "add661"
  type: "Eltwise"
  bottom: "mul659"
  bottom: "mul660"
  top: "add661"
  eltwise_param {
    operation: SUM
  }
}
layer {
  name: "conv662"
  type: "Convolution"
  bottom: "add661"
  top: "conv662"
  convolution_param {
    num_output: 512
    bias_term: false
    pad: 0
    kernel_size: 1
    stride: 1
  }
}
layer {
  name: "bn663"
  type: "BatchNorm"
  bottom: "conv662"
  top: "conv662"
  batch_norm_param {
    moving_average_fraction: 0.899999976158
    eps: 9.99999974738e-06
  }
}
layer {
  name: "scale663"
  type: "Scale"
  bottom: "conv662"
  top: "conv662"
  scale_param {
    bias_term: true
  }
}
layer {
  name: "add664"
  type: "Eltwise"
  bottom: "conv662"
  bottom: "add637"
  top: "add664"
  eltwise_param {
    operation: SUM
  }
}
layer {
  name: "relu665"
  type: "ReLU"
  bottom: "add664"
  top: "add664"
}
layer {
  name: "conv666"
  type: "Convolution"
  bottom: "add664"
  top: "conv666"
  convolution_param {
    num_output: 128
    bias_term: false
    pad: 0
    kernel_size: 1
    stride: 1
  }
}
layer {
  name: "bn667"
  type: "BatchNorm"
  bottom: "conv666"
  top: "conv666"
  batch_norm_param {
    moving_average_fraction: 0.899999976158
    eps: 9.99999974738e-06
  }
}
layer {
  name: "scale667"
  type: "Scale"
  bottom: "conv666"
  top: "conv666"
  scale_param {
    bias_term: true
  }
}
layer {
  name: "relu668"
  type: "ReLU"
  bottom: "conv666"
  top: "conv666"
}
layer {
  name: "conv669"
  type: "Convolution"
  bottom: "conv666"
  top: "conv669"
  convolution_param {
    num_output: 256
    bias_term: false
    pad: 1
    kernel_size: 3
    group: 2
    stride: 1
  }
}
layer {
  name: "bn670"
  type: "BatchNorm"
  bottom: "conv669"
  top: "conv669"
  batch_norm_param {
    moving_average_fraction: 0.899999976158
    eps: 9.99999974738e-06
  }
}
layer {
  name: "scale670"
  type: "Scale"
  bottom: "conv669"
  top: "conv669"
  scale_param {
    bias_term: true
  }
}
layer {
  name: "relu671"
  type: "ReLU"
  bottom: "conv669"
  top: "conv669"
}
layer {
  name: "slice672"
  type: "Slice"
  bottom: "conv669"
  top: "slice672-0"
  top: "slice672-1"
  slice_param {
    slice_point: 128
    axis: 1
  }
}
layer {
  name: "add673"
  type: "Eltwise"
  bottom: "slice672-0"
  bottom: "slice672-1"
  top: "add673"
  eltwise_param {
    operation: SUM
  }
}
layer {
  name: "pool674"
  type: "Pooling"
  bottom: "add673"
  top: "pool674"
  pooling_param {
    pool: AVE
    global_pooling: true
  }
}
layer {
  name: "conv675"
  type: "Convolution"
  bottom: "pool674"
  top: "conv675"
  convolution_param {
    num_output: 64
    bias_term: true
    pad: 0
    kernel_size: 1
    stride: 1
  }
}
layer {
  name: "bn676"
  type: "BatchNorm"
  bottom: "conv675"
  top: "conv675"
  batch_norm_param {
    moving_average_fraction: 0.899999976158
    eps: 9.99999974738e-06
  }
}
layer {
  name: "scale676"
  type: "Scale"
  bottom: "conv675"
  top: "conv675"
  scale_param {
    bias_term: true
  }
}
layer {
  name: "relu677"
  type: "ReLU"
  bottom: "conv675"
  top: "conv675"
}
layer {
  name: "conv678"
  type: "Convolution"
  bottom: "conv675"
  top: "conv678"
  convolution_param {
    num_output: 256
    bias_term: true
    pad: 0
    kernel_size: 1
    stride: 1
  }
}
layer {
  name: "reshape680"
  type: "Reshape"
  bottom: "conv678"
  top: "reshape680"
  reshape_param {
    shape {
      dim: 0
      dim: 1
      dim: 2
      dim: -1
    }
  }
}
layer {
  name: "perm681"
  type: "Permute"
  bottom: "reshape680"
  top: "perm681"
  permute_param {
    order: 0
    order: 2
    order: 1
    order: 3
  }
}
layer {
  name: "softmax682"
  type: "Softmax"
  bottom: "perm681"
  top: "softmax682"
  softmax_param {
    axis: 1
  }
}
layer {
  name: "reshape684"
  type: "Reshape"
  bottom: "softmax682"
  top: "reshape684"
  reshape_param {
    shape {
      dim: 0
      dim: -1
    }
  }
}
layer {
  name: "slice685"
  type: "Slice"
  bottom: "reshape684"
  top: "slice685-0"
  top: "slice685-1"
  slice_param {
    slice_point: 128
    axis: 1
  }
}
layer {
  name: "mul686"
  type: "Scale"
  bottom: "slice672-0"
  bottom: "slice685-0"
  top: "mul686"
  scale_param {
    axis: 0
    bias_term: false
  }
}
layer {
  name: "mul687"
  type: "Scale"
  bottom: "slice672-1"
  bottom: "slice685-1"
  top: "mul687"
  scale_param {
    axis: 0
    bias_term: false
  }
}
layer {
  name: "add688"
  type: "Eltwise"
  bottom: "mul686"
  bottom: "mul687"
  top: "add688"
  eltwise_param {
    operation: SUM
  }
}
layer {
  name: "conv689"
  type: "Convolution"
  bottom: "add688"
  top: "conv689"
  convolution_param {
    num_output: 512
    bias_term: false
    pad: 0
    kernel_size: 1
    stride: 1
  }
}
layer {
  name: "bn690"
  type: "BatchNorm"
  bottom: "conv689"
  top: "conv689"
  batch_norm_param {
    moving_average_fraction: 0.899999976158
    eps: 9.99999974738e-06
  }
}
layer {
  name: "scale690"
  type: "Scale"
  bottom: "conv689"
  top: "conv689"
  scale_param {
    bias_term: true
  }
}
layer {
  name: "add691"
  type: "Eltwise"
  bottom: "conv689"
  bottom: "add664"
  top: "add691"
  eltwise_param {
    operation: SUM
  }
}
layer {
  name: "relu692"
  type: "ReLU"
  bottom: "add691"
  top: "add691"
}
layer {
  name: "conv693"
  type: "Convolution"
  bottom: "add691"
  top: "conv693"
  convolution_param {
    num_output: 128
    bias_term: false
    pad: 0
    kernel_size: 1
    stride: 1
  }
}
layer {
  name: "bn694"
  type: "BatchNorm"
  bottom: "conv693"
  top: "conv693"
  batch_norm_param {
    moving_average_fraction: 0.899999976158
    eps: 9.99999974738e-06
  }
}
layer {
  name: "scale694"
  type: "Scale"
  bottom: "conv693"
  top: "conv693"
  scale_param {
    bias_term: true
  }
}
layer {
  name: "relu695"
  type: "ReLU"
  bottom: "conv693"
  top: "conv693"
}
layer {
  name: "conv696"
  type: "Convolution"
  bottom: "conv693"
  top: "conv696"
  convolution_param {
    num_output: 256
    bias_term: false
    pad: 1
    kernel_size: 3
    group: 2
    stride: 1
  }
}
layer {
  name: "bn697"
  type: "BatchNorm"
  bottom: "conv696"
  top: "conv696"
  batch_norm_param {
    moving_average_fraction: 0.899999976158
    eps: 9.99999974738e-06
  }
}
layer {
  name: "scale697"
  type: "Scale"
  bottom: "conv696"
  top: "conv696"
  scale_param {
    bias_term: true
  }
}
layer {
  name: "relu698"
  type: "ReLU"
  bottom: "conv696"
  top: "conv696"
}
layer {
  name: "slice699"
  type: "Slice"
  bottom: "conv696"
  top: "slice699-0"
  top: "slice699-1"
  slice_param {
    slice_point: 128
    axis: 1
  }
}
layer {
  name: "add700"
  type: "Eltwise"
  bottom: "slice699-0"
  bottom: "slice699-1"
  top: "add700"
  eltwise_param {
    operation: SUM
  }
}
layer {
  name: "pool701"
  type: "Pooling"
  bottom: "add700"
  top: "pool701"
  pooling_param {
    pool: AVE
    global_pooling: true
  }
}
layer {
  name: "conv702"
  type: "Convolution"
  bottom: "pool701"
  top: "conv702"
  convolution_param {
    num_output: 64
    bias_term: true
    pad: 0
    kernel_size: 1
    stride: 1
  }
}
layer {
  name: "bn703"
  type: "BatchNorm"
  bottom: "conv702"
  top: "conv702"
  batch_norm_param {
    moving_average_fraction: 0.899999976158
    eps: 9.99999974738e-06
  }
}
layer {
  name: "scale703"
  type: "Scale"
  bottom: "conv702"
  top: "conv702"
  scale_param {
    bias_term: true
  }
}
layer {
  name: "relu704"
  type: "ReLU"
  bottom: "conv702"
  top: "conv702"
}
layer {
  name: "conv705"
  type: "Convolution"
  bottom: "conv702"
  top: "conv705"
  convolution_param {
    num_output: 256
    bias_term: true
    pad: 0
    kernel_size: 1
    stride: 1
  }
}
layer {
  name: "reshape707"
  type: "Reshape"
  bottom: "conv705"
  top: "reshape707"
  reshape_param {
    shape {
      dim: 0
      dim: 1
      dim: 2
      dim: -1
    }
  }
}
layer {
  name: "perm708"
  type: "Permute"
  bottom: "reshape707"
  top: "perm708"
  permute_param {
    order: 0
    order: 2
    order: 1
    order: 3
  }
}
layer {
  name: "softmax709"
  type: "Softmax"
  bottom: "perm708"
  top: "softmax709"
  softmax_param {
    axis: 1
  }
}
layer {
  name: "reshape711"
  type: "Reshape"
  bottom: "softmax709"
  top: "reshape711"
  reshape_param {
    shape {
      dim: 0
      dim: -1
    }
  }
}
layer {
  name: "slice712"
  type: "Slice"
  bottom: "reshape711"
  top: "slice712-0"
  top: "slice712-1"
  slice_param {
    slice_point: 128
    axis: 1
  }
}
layer {
  name: "mul713"
  type: "Scale"
  bottom: "slice699-0"
  bottom: "slice712-0"
  top: "mul713"
  scale_param {
    axis: 0
    bias_term: false
  }
}
layer {
  name: "mul714"
  type: "Scale"
  bottom: "slice699-1"
  bottom: "slice712-1"
  top: "mul714"
  scale_param {
    axis: 0
    bias_term: false
  }
}
layer {
  name: "add715"
  type: "Eltwise"
  bottom: "mul713"
  bottom: "mul714"
  top: "add715"
  eltwise_param {
    operation: SUM
  }
}
layer {
  name: "conv716"
  type: "Convolution"
  bottom: "add715"
  top: "conv716"
  convolution_param {
    num_output: 512
    bias_term: false
    pad: 0
    kernel_size: 1
    stride: 1
  }
}
layer {
  name: "bn717"
  type: "BatchNorm"
  bottom: "conv716"
  top: "conv716"
  batch_norm_param {
    moving_average_fraction: 0.899999976158
    eps: 9.99999974738e-06
  }
}
layer {
  name: "scale717"
  type: "Scale"
  bottom: "conv716"
  top: "conv716"
  scale_param {
    bias_term: true
  }
}
layer {
  name: "add718"
  type: "Eltwise"
  bottom: "conv716"
  bottom: "add691"
  top: "add718"
  eltwise_param {
    operation: SUM
  }
}
layer {
  name: "relu719"
  type: "ReLU"
  bottom: "add718"
  top: "add718"
}
layer {
  name: "conv720"
  type: "Convolution"
  bottom: "add718"
  top: "conv720"
  convolution_param {
    num_output: 128
    bias_term: false
    pad: 0
    kernel_size: 1
    stride: 1
  }
}
layer {
  name: "bn721"
  type: "BatchNorm"
  bottom: "conv720"
  top: "conv720"
  batch_norm_param {
    moving_average_fraction: 0.899999976158
    eps: 9.99999974738e-06
  }
}
layer {
  name: "scale721"
  type: "Scale"
  bottom: "conv720"
  top: "conv720"
  scale_param {
    bias_term: true
  }
}
layer {
  name: "relu722"
  type: "ReLU"
  bottom: "conv720"
  top: "conv720"
}
layer {
  name: "conv723"
  type: "Convolution"
  bottom: "conv720"
  top: "conv723"
  convolution_param {
    num_output: 256
    bias_term: false
    pad: 1
    kernel_size: 3
    group: 2
    stride: 1
  }
}
layer {
  name: "bn724"
  type: "BatchNorm"
  bottom: "conv723"
  top: "conv723"
  batch_norm_param {
    moving_average_fraction: 0.899999976158
    eps: 9.99999974738e-06
  }
}
layer {
  name: "scale724"
  type: "Scale"
  bottom: "conv723"
  top: "conv723"
  scale_param {
    bias_term: true
  }
}
layer {
  name: "relu725"
  type: "ReLU"
  bottom: "conv723"
  top: "conv723"
}
layer {
  name: "slice726"
  type: "Slice"
  bottom: "conv723"
  top: "slice726-0"
  top: "slice726-1"
  slice_param {
    slice_point: 128
    axis: 1
  }
}
layer {
  name: "add727"
  type: "Eltwise"
  bottom: "slice726-0"
  bottom: "slice726-1"
  top: "add727"
  eltwise_param {
    operation: SUM
  }
}
layer {
  name: "pool728"
  type: "Pooling"
  bottom: "add727"
  top: "pool728"
  pooling_param {
    pool: AVE
    global_pooling: true
  }
}
layer {
  name: "conv729"
  type: "Convolution"
  bottom: "pool728"
  top: "conv729"
  convolution_param {
    num_output: 64
    bias_term: true
    pad: 0
    kernel_size: 1
    stride: 1
  }
}
layer {
  name: "bn730"
  type: "BatchNorm"
  bottom: "conv729"
  top: "conv729"
  batch_norm_param {
    moving_average_fraction: 0.899999976158
    eps: 9.99999974738e-06
  }
}
layer {
  name: "scale730"
  type: "Scale"
  bottom: "conv729"
  top: "conv729"
  scale_param {
    bias_term: true
  }
}
layer {
  name: "relu731"
  type: "ReLU"
  bottom: "conv729"
  top: "conv729"
}
layer {
  name: "conv732"
  type: "Convolution"
  bottom: "conv729"
  top: "conv732"
  convolution_param {
    num_output: 256
    bias_term: true
    pad: 0
    kernel_size: 1
    stride: 1
  }
}
layer {
  name: "reshape734"
  type: "Reshape"
  bottom: "conv732"
  top: "reshape734"
  reshape_param {
    shape {
      dim: 0
      dim: 1
      dim: 2
      dim: -1
    }
  }
}
layer {
  name: "perm735"
  type: "Permute"
  bottom: "reshape734"
  top: "perm735"
  permute_param {
    order: 0
    order: 2
    order: 1
    order: 3
  }
}
layer {
  name: "softmax736"
  type: "Softmax"
  bottom: "perm735"
  top: "softmax736"
  softmax_param {
    axis: 1
  }
}
layer {
  name: "reshape738"
  type: "Reshape"
  bottom: "softmax736"
  top: "reshape738"
  reshape_param {
    shape {
      dim: 0
      dim: -1
    }
  }
}
layer {
  name: "slice739"
  type: "Slice"
  bottom: "reshape738"
  top: "slice739-0"
  top: "slice739-1"
  slice_param {
    slice_point: 128
    axis: 1
  }
}
layer {
  name: "mul740"
  type: "Scale"
  bottom: "slice726-0"
  bottom: "slice739-0"
  top: "mul740"
  scale_param {
    axis: 0
    bias_term: false
  }
}
layer {
  name: "mul741"
  type: "Scale"
  bottom: "slice726-1"
  bottom: "slice739-1"
  top: "mul741"
  scale_param {
    axis: 0
    bias_term: false
  }
}
layer {
  name: "add742"
  type: "Eltwise"
  bottom: "mul740"
  bottom: "mul741"
  top: "add742"
  eltwise_param {
    operation: SUM
  }
}
layer {
  name: "conv743"
  type: "Convolution"
  bottom: "add742"
  top: "conv743"
  convolution_param {
    num_output: 512
    bias_term: false
    pad: 0
    kernel_size: 1
    stride: 1
  }
}
layer {
  name: "bn744"
  type: "BatchNorm"
  bottom: "conv743"
  top: "conv743"
  batch_norm_param {
    moving_average_fraction: 0.899999976158
    eps: 9.99999974738e-06
  }
}
layer {
  name: "scale744"
  type: "Scale"
  bottom: "conv743"
  top: "conv743"
  scale_param {
    bias_term: true
  }
}
layer {
  name: "add745"
  type: "Eltwise"
  bottom: "conv743"
  bottom: "add718"
  top: "add745"
  eltwise_param {
    operation: SUM
  }
}
layer {
  name: "relu746"
  type: "ReLU"
  bottom: "add745"
  top: "add745"
}
layer {
  name: "conv747"
  type: "Convolution"
  bottom: "add745"
  top: "conv747"
  convolution_param {
    num_output: 128
    bias_term: false
    pad: 0
    kernel_size: 1
    stride: 1
  }
}
layer {
  name: "bn748"
  type: "BatchNorm"
  bottom: "conv747"
  top: "conv747"
  batch_norm_param {
    moving_average_fraction: 0.899999976158
    eps: 9.99999974738e-06
  }
}
layer {
  name: "scale748"
  type: "Scale"
  bottom: "conv747"
  top: "conv747"
  scale_param {
    bias_term: true
  }
}
layer {
  name: "relu749"
  type: "ReLU"
  bottom: "conv747"
  top: "conv747"
}
layer {
  name: "conv750"
  type: "Convolution"
  bottom: "conv747"
  top: "conv750"
  convolution_param {
    num_output: 256
    bias_term: false
    pad: 1
    kernel_size: 3
    group: 2
    stride: 1
  }
}
layer {
  name: "bn751"
  type: "BatchNorm"
  bottom: "conv750"
  top: "conv750"
  batch_norm_param {
    moving_average_fraction: 0.899999976158
    eps: 9.99999974738e-06
  }
}
layer {
  name: "scale751"
  type: "Scale"
  bottom: "conv750"
  top: "conv750"
  scale_param {
    bias_term: true
  }
}
layer {
  name: "relu752"
  type: "ReLU"
  bottom: "conv750"
  top: "conv750"
}
layer {
  name: "slice753"
  type: "Slice"
  bottom: "conv750"
  top: "slice753-0"
  top: "slice753-1"
  slice_param {
    slice_point: 128
    axis: 1
  }
}
layer {
  name: "add754"
  type: "Eltwise"
  bottom: "slice753-0"
  bottom: "slice753-1"
  top: "add754"
  eltwise_param {
    operation: SUM
  }
}
layer {
  name: "pool755"
  type: "Pooling"
  bottom: "add754"
  top: "pool755"
  pooling_param {
    pool: AVE
    global_pooling: true
  }
}
layer {
  name: "conv756"
  type: "Convolution"
  bottom: "pool755"
  top: "conv756"
  convolution_param {
    num_output: 64
    bias_term: true
    pad: 0
    kernel_size: 1
    stride: 1
  }
}
layer {
  name: "bn757"
  type: "BatchNorm"
  bottom: "conv756"
  top: "conv756"
  batch_norm_param {
    moving_average_fraction: 0.899999976158
    eps: 9.99999974738e-06
  }
}
layer {
  name: "scale757"
  type: "Scale"
  bottom: "conv756"
  top: "conv756"
  scale_param {
    bias_term: true
  }
}
layer {
  name: "relu758"
  type: "ReLU"
  bottom: "conv756"
  top: "conv756"
}
layer {
  name: "conv759"
  type: "Convolution"
  bottom: "conv756"
  top: "conv759"
  convolution_param {
    num_output: 256
    bias_term: true
    pad: 0
    kernel_size: 1
    stride: 1
  }
}
layer {
  name: "reshape761"
  type: "Reshape"
  bottom: "conv759"
  top: "reshape761"
  reshape_param {
    shape {
      dim: 0
      dim: 1
      dim: 2
      dim: -1
    }
  }
}
layer {
  name: "perm762"
  type: "Permute"
  bottom: "reshape761"
  top: "perm762"
  permute_param {
    order: 0
    order: 2
    order: 1
    order: 3
  }
}
layer {
  name: "softmax763"
  type: "Softmax"
  bottom: "perm762"
  top: "softmax763"
  softmax_param {
    axis: 1
  }
}
layer {
  name: "reshape765"
  type: "Reshape"
  bottom: "softmax763"
  top: "reshape765"
  reshape_param {
    shape {
      dim: 0
      dim: -1
    }
  }
}
layer {
  name: "slice766"
  type: "Slice"
  bottom: "reshape765"
  top: "slice766-0"
  top: "slice766-1"
  slice_param {
    slice_point: 128
    axis: 1
  }
}
layer {
  name: "mul767"
  type: "Scale"
  bottom: "slice753-0"
  bottom: "slice766-0"
  top: "mul767"
  scale_param {
    axis: 0
    bias_term: false
  }
}
layer {
  name: "mul768"
  type: "Scale"
  bottom: "slice753-1"
  bottom: "slice766-1"
  top: "mul768"
  scale_param {
    axis: 0
    bias_term: false
  }
}
layer {
  name: "add769"
  type: "Eltwise"
  bottom: "mul767"
  bottom: "mul768"
  top: "add769"
  eltwise_param {
    operation: SUM
  }
}
layer {
  name: "conv770"
  type: "Convolution"
  bottom: "add769"
  top: "conv770"
  convolution_param {
    num_output: 512
    bias_term: false
    pad: 0
    kernel_size: 1
    stride: 1
  }
}
layer {
  name: "bn771"
  type: "BatchNorm"
  bottom: "conv770"
  top: "conv770"
  batch_norm_param {
    moving_average_fraction: 0.899999976158
    eps: 9.99999974738e-06
  }
}
layer {
  name: "scale771"
  type: "Scale"
  bottom: "conv770"
  top: "conv770"
  scale_param {
    bias_term: true
  }
}
layer {
  name: "add772"
  type: "Eltwise"
  bottom: "conv770"
  bottom: "add745"
  top: "add772"
  eltwise_param {
    operation: SUM
  }
}
layer {
  name: "relu773"
  type: "ReLU"
  bottom: "add772"
  top: "add772"
}
layer {
  name: "conv774"
  type: "Convolution"
  bottom: "add772"
  top: "conv774"
  convolution_param {
    num_output: 128
    bias_term: false
    pad: 0
    kernel_size: 1
    stride: 1
  }
}
layer {
  name: "bn775"
  type: "BatchNorm"
  bottom: "conv774"
  top: "conv774"
  batch_norm_param {
    moving_average_fraction: 0.899999976158
    eps: 9.99999974738e-06
  }
}
layer {
  name: "scale775"
  type: "Scale"
  bottom: "conv774"
  top: "conv774"
  scale_param {
    bias_term: true
  }
}
layer {
  name: "relu776"
  type: "ReLU"
  bottom: "conv774"
  top: "conv774"
}
layer {
  name: "conv777"
  type: "Convolution"
  bottom: "conv774"
  top: "conv777"
  convolution_param {
    num_output: 256
    bias_term: false
    pad: 1
    kernel_size: 3
    group: 2
    stride: 1
  }
}
layer {
  name: "bn778"
  type: "BatchNorm"
  bottom: "conv777"
  top: "conv777"
  batch_norm_param {
    moving_average_fraction: 0.899999976158
    eps: 9.99999974738e-06
  }
}
layer {
  name: "scale778"
  type: "Scale"
  bottom: "conv777"
  top: "conv777"
  scale_param {
    bias_term: true
  }
}
layer {
  name: "relu779"
  type: "ReLU"
  bottom: "conv777"
  top: "conv777"
}
layer {
  name: "slice780"
  type: "Slice"
  bottom: "conv777"
  top: "slice780-0"
  top: "slice780-1"
  slice_param {
    slice_point: 128
    axis: 1
  }
}
layer {
  name: "add781"
  type: "Eltwise"
  bottom: "slice780-0"
  bottom: "slice780-1"
  top: "add781"
  eltwise_param {
    operation: SUM
  }
}
layer {
  name: "pool782"
  type: "Pooling"
  bottom: "add781"
  top: "pool782"
  pooling_param {
    pool: AVE
    global_pooling: true
  }
}
layer {
  name: "conv783"
  type: "Convolution"
  bottom: "pool782"
  top: "conv783"
  convolution_param {
    num_output: 64
    bias_term: true
    pad: 0
    kernel_size: 1
    stride: 1
  }
}
layer {
  name: "bn784"
  type: "BatchNorm"
  bottom: "conv783"
  top: "conv783"
  batch_norm_param {
    moving_average_fraction: 0.899999976158
    eps: 9.99999974738e-06
  }
}
layer {
  name: "scale784"
  type: "Scale"
  bottom: "conv783"
  top: "conv783"
  scale_param {
    bias_term: true
  }
}
layer {
  name: "relu785"
  type: "ReLU"
  bottom: "conv783"
  top: "conv783"
}
layer {
  name: "conv786"
  type: "Convolution"
  bottom: "conv783"
  top: "conv786"
  convolution_param {
    num_output: 256
    bias_term: true
    pad: 0
    kernel_size: 1
    stride: 1
  }
}
layer {
  name: "reshape788"
  type: "Reshape"
  bottom: "conv786"
  top: "reshape788"
  reshape_param {
    shape {
      dim: 0
      dim: 1
      dim: 2
      dim: -1
    }
  }
}
layer {
  name: "perm789"
  type: "Permute"
  bottom: "reshape788"
  top: "perm789"
  permute_param {
    order: 0
    order: 2
    order: 1
    order: 3
  }
}
layer {
  name: "softmax790"
  type: "Softmax"
  bottom: "perm789"
  top: "softmax790"
  softmax_param {
    axis: 1
  }
}
layer {
  name: "reshape792"
  type: "Reshape"
  bottom: "softmax790"
  top: "reshape792"
  reshape_param {
    shape {
      dim: 0
      dim: -1
    }
  }
}
layer {
  name: "slice793"
  type: "Slice"
  bottom: "reshape792"
  top: "slice793-0"
  top: "slice793-1"
  slice_param {
    slice_point: 128
    axis: 1
  }
}
layer {
  name: "mul794"
  type: "Scale"
  bottom: "slice780-0"
  bottom: "slice793-0"
  top: "mul794"
  scale_param {
    axis: 0
    bias_term: false
  }
}
layer {
  name: "mul795"
  type: "Scale"
  bottom: "slice780-1"
  bottom: "slice793-1"
  top: "mul795"
  scale_param {
    axis: 0
    bias_term: false
  }
}
layer {
  name: "add796"
  type: "Eltwise"
  bottom: "mul794"
  bottom: "mul795"
  top: "add796"
  eltwise_param {
    operation: SUM
  }
}
layer {
  name: "conv797"
  type: "Convolution"
  bottom: "add796"
  top: "conv797"
  convolution_param {
    num_output: 512
    bias_term: false
    pad: 0
    kernel_size: 1
    stride: 1
  }
}
layer {
  name: "bn798"
  type: "BatchNorm"
  bottom: "conv797"
  top: "conv797"
  batch_norm_param {
    moving_average_fraction: 0.899999976158
    eps: 9.99999974738e-06
  }
}
layer {
  name: "scale798"
  type: "Scale"
  bottom: "conv797"
  top: "conv797"
  scale_param {
    bias_term: true
  }
}
layer {
  name: "add799"
  type: "Eltwise"
  bottom: "conv797"
  bottom: "add772"
  top: "add799"
  eltwise_param {
    operation: SUM
  }
}
layer {
  name: "relu800"
  type: "ReLU"
  bottom: "add799"
  top: "add799"
}
layer {
  name: "conv801"
  type: "Convolution"
  bottom: "add799"
  top: "conv801"
  convolution_param {
    num_output: 128
    bias_term: false
    pad: 0
    kernel_size: 1
    stride: 1
  }
}
layer {
  name: "bn802"
  type: "BatchNorm"
  bottom: "conv801"
  top: "conv801"
  batch_norm_param {
    moving_average_fraction: 0.899999976158
    eps: 9.99999974738e-06
  }
}
layer {
  name: "scale802"
  type: "Scale"
  bottom: "conv801"
  top: "conv801"
  scale_param {
    bias_term: true
  }
}
layer {
  name: "relu803"
  type: "ReLU"
  bottom: "conv801"
  top: "conv801"
}
layer {
  name: "conv804"
  type: "Convolution"
  bottom: "conv801"
  top: "conv804"
  convolution_param {
    num_output: 256
    bias_term: false
    pad: 1
    kernel_size: 3
    group: 2
    stride: 1
  }
}
layer {
  name: "bn805"
  type: "BatchNorm"
  bottom: "conv804"
  top: "conv804"
  batch_norm_param {
    moving_average_fraction: 0.899999976158
    eps: 9.99999974738e-06
  }
}
layer {
  name: "scale805"
  type: "Scale"
  bottom: "conv804"
  top: "conv804"
  scale_param {
    bias_term: true
  }
}
layer {
  name: "relu806"
  type: "ReLU"
  bottom: "conv804"
  top: "conv804"
}
layer {
  name: "slice807"
  type: "Slice"
  bottom: "conv804"
  top: "slice807-0"
  top: "slice807-1"
  slice_param {
    slice_point: 128
    axis: 1
  }
}
layer {
  name: "add808"
  type: "Eltwise"
  bottom: "slice807-0"
  bottom: "slice807-1"
  top: "add808"
  eltwise_param {
    operation: SUM
  }
}
layer {
  name: "pool809"
  type: "Pooling"
  bottom: "add808"
  top: "pool809"
  pooling_param {
    pool: AVE
    global_pooling: true
  }
}
layer {
  name: "conv810"
  type: "Convolution"
  bottom: "pool809"
  top: "conv810"
  convolution_param {
    num_output: 64
    bias_term: true
    pad: 0
    kernel_size: 1
    stride: 1
  }
}
layer {
  name: "bn811"
  type: "BatchNorm"
  bottom: "conv810"
  top: "conv810"
  batch_norm_param {
    moving_average_fraction: 0.899999976158
    eps: 9.99999974738e-06
  }
}
layer {
  name: "scale811"
  type: "Scale"
  bottom: "conv810"
  top: "conv810"
  scale_param {
    bias_term: true
  }
}
layer {
  name: "relu812"
  type: "ReLU"
  bottom: "conv810"
  top: "conv810"
}
layer {
  name: "conv813"
  type: "Convolution"
  bottom: "conv810"
  top: "conv813"
  convolution_param {
    num_output: 256
    bias_term: true
    pad: 0
    kernel_size: 1
    stride: 1
  }
}
layer {
  name: "reshape815"
  type: "Reshape"
  bottom: "conv813"
  top: "reshape815"
  reshape_param {
    shape {
      dim: 0
      dim: 1
      dim: 2
      dim: -1
    }
  }
}
layer {
  name: "perm816"
  type: "Permute"
  bottom: "reshape815"
  top: "perm816"
  permute_param {
    order: 0
    order: 2
    order: 1
    order: 3
  }
}
layer {
  name: "softmax817"
  type: "Softmax"
  bottom: "perm816"
  top: "softmax817"
  softmax_param {
    axis: 1
  }
}
layer {
  name: "reshape819"
  type: "Reshape"
  bottom: "softmax817"
  top: "reshape819"
  reshape_param {
    shape {
      dim: 0
      dim: -1
    }
  }
}
layer {
  name: "slice820"
  type: "Slice"
  bottom: "reshape819"
  top: "slice820-0"
  top: "slice820-1"
  slice_param {
    slice_point: 128
    axis: 1
  }
}
layer {
  name: "mul821"
  type: "Scale"
  bottom: "slice807-0"
  bottom: "slice820-0"
  top: "mul821"
  scale_param {
    axis: 0
    bias_term: false
  }
}
layer {
  name: "mul822"
  type: "Scale"
  bottom: "slice807-1"
  bottom: "slice820-1"
  top: "mul822"
  scale_param {
    axis: 0
    bias_term: false
  }
}
layer {
  name: "add823"
  type: "Eltwise"
  bottom: "mul821"
  bottom: "mul822"
  top: "add823"
  eltwise_param {
    operation: SUM
  }
}
layer {
  name: "conv824"
  type: "Convolution"
  bottom: "add823"
  top: "conv824"
  convolution_param {
    num_output: 512
    bias_term: false
    pad: 0
    kernel_size: 1
    stride: 1
  }
}
layer {
  name: "bn825"
  type: "BatchNorm"
  bottom: "conv824"
  top: "conv824"
  batch_norm_param {
    moving_average_fraction: 0.899999976158
    eps: 9.99999974738e-06
  }
}
layer {
  name: "scale825"
  type: "Scale"
  bottom: "conv824"
  top: "conv824"
  scale_param {
    bias_term: true
  }
}
layer {
  name: "add826"
  type: "Eltwise"
  bottom: "conv824"
  bottom: "add799"
  top: "add826"
  eltwise_param {
    operation: SUM
  }
}
layer {
  name: "relu827"
  type: "ReLU"
  bottom: "add826"
  top: "add826"
}
layer {
  name: "conv828"
  type: "Convolution"
  bottom: "add826"
  top: "conv828"
  convolution_param {
    num_output: 128
    bias_term: false
    pad: 0
    kernel_size: 1
    stride: 1
  }
}
layer {
  name: "bn829"
  type: "BatchNorm"
  bottom: "conv828"
  top: "conv828"
  batch_norm_param {
    moving_average_fraction: 0.899999976158
    eps: 9.99999974738e-06
  }
}
layer {
  name: "scale829"
  type: "Scale"
  bottom: "conv828"
  top: "conv828"
  scale_param {
    bias_term: true
  }
}
layer {
  name: "relu830"
  type: "ReLU"
  bottom: "conv828"
  top: "conv828"
}
layer {
  name: "conv831"
  type: "Convolution"
  bottom: "conv828"
  top: "conv831"
  convolution_param {
    num_output: 256
    bias_term: false
    pad: 1
    kernel_size: 3
    group: 2
    stride: 1
  }
}
layer {
  name: "bn832"
  type: "BatchNorm"
  bottom: "conv831"
  top: "conv831"
  batch_norm_param {
    moving_average_fraction: 0.899999976158
    eps: 9.99999974738e-06
  }
}
layer {
  name: "scale832"
  type: "Scale"
  bottom: "conv831"
  top: "conv831"
  scale_param {
    bias_term: true
  }
}
layer {
  name: "relu833"
  type: "ReLU"
  bottom: "conv831"
  top: "conv831"
}
layer {
  name: "slice834"
  type: "Slice"
  bottom: "conv831"
  top: "slice834-0"
  top: "slice834-1"
  slice_param {
    slice_point: 128
    axis: 1
  }
}
layer {
  name: "add835"
  type: "Eltwise"
  bottom: "slice834-0"
  bottom: "slice834-1"
  top: "add835"
  eltwise_param {
    operation: SUM
  }
}
layer {
  name: "pool836"
  type: "Pooling"
  bottom: "add835"
  top: "pool836"
  pooling_param {
    pool: AVE
    global_pooling: true
  }
}
layer {
  name: "conv837"
  type: "Convolution"
  bottom: "pool836"
  top: "conv837"
  convolution_param {
    num_output: 64
    bias_term: true
    pad: 0
    kernel_size: 1
    stride: 1
  }
}
layer {
  name: "bn838"
  type: "BatchNorm"
  bottom: "conv837"
  top: "conv837"
  batch_norm_param {
    moving_average_fraction: 0.899999976158
    eps: 9.99999974738e-06
  }
}
layer {
  name: "scale838"
  type: "Scale"
  bottom: "conv837"
  top: "conv837"
  scale_param {
    bias_term: true
  }
}
layer {
  name: "relu839"
  type: "ReLU"
  bottom: "conv837"
  top: "conv837"
}
layer {
  name: "conv840"
  type: "Convolution"
  bottom: "conv837"
  top: "conv840"
  convolution_param {
    num_output: 256
    bias_term: true
    pad: 0
    kernel_size: 1
    stride: 1
  }
}
layer {
  name: "reshape842"
  type: "Reshape"
  bottom: "conv840"
  top: "reshape842"
  reshape_param {
    shape {
      dim: 0
      dim: 1
      dim: 2
      dim: -1
    }
  }
}
layer {
  name: "perm843"
  type: "Permute"
  bottom: "reshape842"
  top: "perm843"
  permute_param {
    order: 0
    order: 2
    order: 1
    order: 3
  }
}
layer {
  name: "softmax844"
  type: "Softmax"
  bottom: "perm843"
  top: "softmax844"
  softmax_param {
    axis: 1
  }
}
layer {
  name: "reshape846"
  type: "Reshape"
  bottom: "softmax844"
  top: "reshape846"
  reshape_param {
    shape {
      dim: 0
      dim: -1
    }
  }
}
layer {
  name: "slice847"
  type: "Slice"
  bottom: "reshape846"
  top: "slice847-0"
  top: "slice847-1"
  slice_param {
    slice_point: 128
    axis: 1
  }
}
layer {
  name: "mul848"
  type: "Scale"
  bottom: "slice834-0"
  bottom: "slice847-0"
  top: "mul848"
  scale_param {
    axis: 0
    bias_term: false
  }
}
layer {
  name: "mul849"
  type: "Scale"
  bottom: "slice834-1"
  bottom: "slice847-1"
  top: "mul849"
  scale_param {
    axis: 0
    bias_term: false
  }
}
layer {
  name: "add850"
  type: "Eltwise"
  bottom: "mul848"
  bottom: "mul849"
  top: "add850"
  eltwise_param {
    operation: SUM
  }
}
layer {
  name: "conv851"
  type: "Convolution"
  bottom: "add850"
  top: "conv851"
  convolution_param {
    num_output: 512
    bias_term: false
    pad: 0
    kernel_size: 1
    stride: 1
  }
}
layer {
  name: "bn852"
  type: "BatchNorm"
  bottom: "conv851"
  top: "conv851"
  batch_norm_param {
    moving_average_fraction: 0.899999976158
    eps: 9.99999974738e-06
  }
}
layer {
  name: "scale852"
  type: "Scale"
  bottom: "conv851"
  top: "conv851"
  scale_param {
    bias_term: true
  }
}
layer {
  name: "add853"
  type: "Eltwise"
  bottom: "conv851"
  bottom: "add826"
  top: "add853"
  eltwise_param {
    operation: SUM
  }
}
layer {
  name: "relu854"
  type: "ReLU"
  bottom: "add853"
  top: "add853"
}
layer {
  name: "conv855"
  type: "Convolution"
  bottom: "add853"
  top: "conv855"
  convolution_param {
    num_output: 128
    bias_term: false
    pad: 0
    kernel_size: 1
    stride: 1
  }
}
layer {
  name: "bn856"
  type: "BatchNorm"
  bottom: "conv855"
  top: "conv855"
  batch_norm_param {
    moving_average_fraction: 0.899999976158
    eps: 9.99999974738e-06
  }
}
layer {
  name: "scale856"
  type: "Scale"
  bottom: "conv855"
  top: "conv855"
  scale_param {
    bias_term: true
  }
}
layer {
  name: "relu857"
  type: "ReLU"
  bottom: "conv855"
  top: "conv855"
}
layer {
  name: "conv858"
  type: "Convolution"
  bottom: "conv855"
  top: "conv858"
  convolution_param {
    num_output: 256
    bias_term: false
    pad: 1
    kernel_size: 3
    group: 2
    stride: 1
  }
}
layer {
  name: "bn859"
  type: "BatchNorm"
  bottom: "conv858"
  top: "conv858"
  batch_norm_param {
    moving_average_fraction: 0.899999976158
    eps: 9.99999974738e-06
  }
}
layer {
  name: "scale859"
  type: "Scale"
  bottom: "conv858"
  top: "conv858"
  scale_param {
    bias_term: true
  }
}
layer {
  name: "relu860"
  type: "ReLU"
  bottom: "conv858"
  top: "conv858"
}
layer {
  name: "slice861"
  type: "Slice"
  bottom: "conv858"
  top: "slice861-0"
  top: "slice861-1"
  slice_param {
    slice_point: 128
    axis: 1
  }
}
layer {
  name: "add862"
  type: "Eltwise"
  bottom: "slice861-0"
  bottom: "slice861-1"
  top: "add862"
  eltwise_param {
    operation: SUM
  }
}
layer {
  name: "pool863"
  type: "Pooling"
  bottom: "add862"
  top: "pool863"
  pooling_param {
    pool: AVE
    global_pooling: true
  }
}
layer {
  name: "conv864"
  type: "Convolution"
  bottom: "pool863"
  top: "conv864"
  convolution_param {
    num_output: 64
    bias_term: true
    pad: 0
    kernel_size: 1
    stride: 1
  }
}
layer {
  name: "bn865"
  type: "BatchNorm"
  bottom: "conv864"
  top: "conv864"
  batch_norm_param {
    moving_average_fraction: 0.899999976158
    eps: 9.99999974738e-06
  }
}
layer {
  name: "scale865"
  type: "Scale"
  bottom: "conv864"
  top: "conv864"
  scale_param {
    bias_term: true
  }
}
layer {
  name: "relu866"
  type: "ReLU"
  bottom: "conv864"
  top: "conv864"
}
layer {
  name: "conv867"
  type: "Convolution"
  bottom: "conv864"
  top: "conv867"
  convolution_param {
    num_output: 256
    bias_term: true
    pad: 0
    kernel_size: 1
    stride: 1
  }
}
layer {
  name: "reshape869"
  type: "Reshape"
  bottom: "conv867"
  top: "reshape869"
  reshape_param {
    shape {
      dim: 0
      dim: 1
      dim: 2
      dim: -1
    }
  }
}
layer {
  name: "perm870"
  type: "Permute"
  bottom: "reshape869"
  top: "perm870"
  permute_param {
    order: 0
    order: 2
    order: 1
    order: 3
  }
}
layer {
  name: "softmax871"
  type: "Softmax"
  bottom: "perm870"
  top: "softmax871"
  softmax_param {
    axis: 1
  }
}
layer {
  name: "reshape873"
  type: "Reshape"
  bottom: "softmax871"
  top: "reshape873"
  reshape_param {
    shape {
      dim: 0
      dim: -1
    }
  }
}
layer {
  name: "slice874"
  type: "Slice"
  bottom: "reshape873"
  top: "slice874-0"
  top: "slice874-1"
  slice_param {
    slice_point: 128
    axis: 1
  }
}
layer {
  name: "mul875"
  type: "Scale"
  bottom: "slice861-0"
  bottom: "slice874-0"
  top: "mul875"
  scale_param {
    axis: 0
    bias_term: false
  }
}
layer {
  name: "mul876"
  type: "Scale"
  bottom: "slice861-1"
  bottom: "slice874-1"
  top: "mul876"
  scale_param {
    axis: 0
    bias_term: false
  }
}
layer {
  name: "add877"
  type: "Eltwise"
  bottom: "mul875"
  bottom: "mul876"
  top: "add877"
  eltwise_param {
    operation: SUM
  }
}
layer {
  name: "conv878"
  type: "Convolution"
  bottom: "add877"
  top: "conv878"
  convolution_param {
    num_output: 512
    bias_term: false
    pad: 0
    kernel_size: 1
    stride: 1
  }
}
layer {
  name: "bn879"
  type: "BatchNorm"
  bottom: "conv878"
  top: "conv878"
  batch_norm_param {
    moving_average_fraction: 0.899999976158
    eps: 9.99999974738e-06
  }
}
layer {
  name: "scale879"
  type: "Scale"
  bottom: "conv878"
  top: "conv878"
  scale_param {
    bias_term: true
  }
}
layer {
  name: "add880"
  type: "Eltwise"
  bottom: "conv878"
  bottom: "add853"
  top: "add880"
  eltwise_param {
    operation: SUM
  }
}
layer {
  name: "relu881"
  type: "ReLU"
  bottom: "add880"
  top: "add880"
}
layer {
  name: "conv882"
  type: "Convolution"
  bottom: "add880"
  top: "conv882"
  convolution_param {
    num_output: 128
    bias_term: false
    pad: 0
    kernel_size: 1
    stride: 1
  }
}
layer {
  name: "bn883"
  type: "BatchNorm"
  bottom: "conv882"
  top: "conv882"
  batch_norm_param {
    moving_average_fraction: 0.899999976158
    eps: 9.99999974738e-06
  }
}
layer {
  name: "scale883"
  type: "Scale"
  bottom: "conv882"
  top: "conv882"
  scale_param {
    bias_term: true
  }
}
layer {
  name: "relu884"
  type: "ReLU"
  bottom: "conv882"
  top: "conv882"
}
layer {
  name: "conv885"
  type: "Convolution"
  bottom: "conv882"
  top: "conv885"
  convolution_param {
    num_output: 256
    bias_term: false
    pad: 1
    kernel_size: 3
    group: 2
    stride: 1
  }
}
layer {
  name: "bn886"
  type: "BatchNorm"
  bottom: "conv885"
  top: "conv885"
  batch_norm_param {
    moving_average_fraction: 0.899999976158
    eps: 9.99999974738e-06
  }
}
layer {
  name: "scale886"
  type: "Scale"
  bottom: "conv885"
  top: "conv885"
  scale_param {
    bias_term: true
  }
}
layer {
  name: "relu887"
  type: "ReLU"
  bottom: "conv885"
  top: "conv885"
}
layer {
  name: "slice888"
  type: "Slice"
  bottom: "conv885"
  top: "slice888-0"
  top: "slice888-1"
  slice_param {
    slice_point: 128
    axis: 1
  }
}
layer {
  name: "add889"
  type: "Eltwise"
  bottom: "slice888-0"
  bottom: "slice888-1"
  top: "add889"
  eltwise_param {
    operation: SUM
  }
}
layer {
  name: "pool890"
  type: "Pooling"
  bottom: "add889"
  top: "pool890"
  pooling_param {
    pool: AVE
    global_pooling: true
  }
}
layer {
  name: "conv891"
  type: "Convolution"
  bottom: "pool890"
  top: "conv891"
  convolution_param {
    num_output: 64
    bias_term: true
    pad: 0
    kernel_size: 1
    stride: 1
  }
}
layer {
  name: "bn892"
  type: "BatchNorm"
  bottom: "conv891"
  top: "conv891"
  batch_norm_param {
    moving_average_fraction: 0.899999976158
    eps: 9.99999974738e-06
  }
}
layer {
  name: "scale892"
  type: "Scale"
  bottom: "conv891"
  top: "conv891"
  scale_param {
    bias_term: true
  }
}
layer {
  name: "relu893"
  type: "ReLU"
  bottom: "conv891"
  top: "conv891"
}
layer {
  name: "conv894"
  type: "Convolution"
  bottom: "conv891"
  top: "conv894"
  convolution_param {
    num_output: 256
    bias_term: true
    pad: 0
    kernel_size: 1
    stride: 1
  }
}
layer {
  name: "reshape896"
  type: "Reshape"
  bottom: "conv894"
  top: "reshape896"
  reshape_param {
    shape {
      dim: 0
      dim: 1
      dim: 2
      dim: -1
    }
  }
}
layer {
  name: "perm897"
  type: "Permute"
  bottom: "reshape896"
  top: "perm897"
  permute_param {
    order: 0
    order: 2
    order: 1
    order: 3
  }
}
layer {
  name: "softmax898"
  type: "Softmax"
  bottom: "perm897"
  top: "softmax898"
  softmax_param {
    axis: 1
  }
}
layer {
  name: "reshape900"
  type: "Reshape"
  bottom: "softmax898"
  top: "reshape900"
  reshape_param {
    shape {
      dim: 0
      dim: -1
    }
  }
}
layer {
  name: "slice901"
  type: "Slice"
  bottom: "reshape900"
  top: "slice901-0"
  top: "slice901-1"
  slice_param {
    slice_point: 128
    axis: 1
  }
}
layer {
  name: "mul902"
  type: "Scale"
  bottom: "slice888-0"
  bottom: "slice901-0"
  top: "mul902"
  scale_param {
    axis: 0
    bias_term: false
  }
}
layer {
  name: "mul903"
  type: "Scale"
  bottom: "slice888-1"
  bottom: "slice901-1"
  top: "mul903"
  scale_param {
    axis: 0
    bias_term: false
  }
}
layer {
  name: "add904"
  type: "Eltwise"
  bottom: "mul902"
  bottom: "mul903"
  top: "add904"
  eltwise_param {
    operation: SUM
  }
}
layer {
  name: "conv905"
  type: "Convolution"
  bottom: "add904"
  top: "conv905"
  convolution_param {
    num_output: 512
    bias_term: false
    pad: 0
    kernel_size: 1
    stride: 1
  }
}
layer {
  name: "bn906"
  type: "BatchNorm"
  bottom: "conv905"
  top: "conv905"
  batch_norm_param {
    moving_average_fraction: 0.899999976158
    eps: 9.99999974738e-06
  }
}
layer {
  name: "scale906"
  type: "Scale"
  bottom: "conv905"
  top: "conv905"
  scale_param {
    bias_term: true
  }
}
layer {
  name: "add907"
  type: "Eltwise"
  bottom: "conv905"
  bottom: "add880"
  top: "add907"
  eltwise_param {
    operation: SUM
  }
}
layer {
  name: "relu908"
  type: "ReLU"
  bottom: "add907"
  top: "add907"
}
layer {
  name: "conv909"
  type: "Convolution"
  bottom: "add907"
  top: "conv909"
  convolution_param {
    num_output: 256
    bias_term: false
    pad: 0
    kernel_size: 1
    stride: 1
  }
}
layer {
  name: "bn910"
  type: "BatchNorm"
  bottom: "conv909"
  top: "conv909"
  batch_norm_param {
    moving_average_fraction: 0.899999976158
    eps: 9.99999974738e-06
  }
}
layer {
  name: "scale910"
  type: "Scale"
  bottom: "conv909"
  top: "conv909"
  scale_param {
    bias_term: true
  }
}
layer {
  name: "relu911"
  type: "ReLU"
  bottom: "conv909"
  top: "conv909"
}
layer {
  name: "conv912"
  type: "Convolution"
  bottom: "conv909"
  top: "conv912"
  convolution_param {
    num_output: 512
    bias_term: false
    pad: 1
    kernel_size: 3
    group: 2
    stride: 1
  }
}
layer {
  name: "bn913"
  type: "BatchNorm"
  bottom: "conv912"
  top: "conv912"
  batch_norm_param {
    moving_average_fraction: 0.899999976158
    eps: 9.99999974738e-06
  }
}
layer {
  name: "scale913"
  type: "Scale"
  bottom: "conv912"
  top: "conv912"
  scale_param {
    bias_term: true
  }
}
layer {
  name: "relu914"
  type: "ReLU"
  bottom: "conv912"
  top: "conv912"
}
layer {
  name: "slice915"
  type: "Slice"
  bottom: "conv912"
  top: "slice915-0"
  top: "slice915-1"
  slice_param {
    slice_point: 256
    axis: 1
  }
}
layer {
  name: "add916"
  type: "Eltwise"
  bottom: "slice915-0"
  bottom: "slice915-1"
  top: "add916"
  eltwise_param {
    operation: SUM
  }
}
layer {
  name: "pool917"
  type: "Pooling"
  bottom: "add916"
  top: "pool917"
  pooling_param {
    pool: AVE
    global_pooling: true
  }
}
layer {
  name: "conv918"
  type: "Convolution"
  bottom: "pool917"
  top: "conv918"
  convolution_param {
    num_output: 128
    bias_term: true
    pad: 0
    kernel_size: 1
    stride: 1
  }
}
layer {
  name: "bn919"
  type: "BatchNorm"
  bottom: "conv918"
  top: "conv918"
  batch_norm_param {
    moving_average_fraction: 0.899999976158
    eps: 9.99999974738e-06
  }
}
layer {
  name: "scale919"
  type: "Scale"
  bottom: "conv918"
  top: "conv918"
  scale_param {
    bias_term: true
  }
}
layer {
  name: "relu920"
  type: "ReLU"
  bottom: "conv918"
  top: "conv918"
}
layer {
  name: "conv921"
  type: "Convolution"
  bottom: "conv918"
  top: "conv921"
  convolution_param {
    num_output: 512
    bias_term: true
    pad: 0
    kernel_size: 1
    stride: 1
  }
}
layer {
  name: "reshape923"
  type: "Reshape"
  bottom: "conv921"
  top: "reshape923"
  reshape_param {
    shape {
      dim: 0
      dim: 1
      dim: 2
      dim: -1
    }
  }
}
layer {
  name: "perm924"
  type: "Permute"
  bottom: "reshape923"
  top: "perm924"
  permute_param {
    order: 0
    order: 2
    order: 1
    order: 3
  }
}
layer {
  name: "softmax925"
  type: "Softmax"
  bottom: "perm924"
  top: "softmax925"
  softmax_param {
    axis: 1
  }
}
layer {
  name: "reshape927"
  type: "Reshape"
  bottom: "softmax925"
  top: "reshape927"
  reshape_param {
    shape {
      dim: 0
      dim: -1
    }
  }
}
layer {
  name: "slice928"
  type: "Slice"
  bottom: "reshape927"
  top: "slice928-0"
  top: "slice928-1"
  slice_param {
    slice_point: 256
    axis: 1
  }
}
layer {
  name: "mul929"
  type: "Scale"
…
  convolution_param {
    num_output: 256
    bias_term: false
    pad: 0
    kernel_size: 1
    stride: 1
  }
}
layer {
  name: "bn2129"
  type: "BatchNorm"
  bottom: "conv2128"
  top: "conv2128"
  batch_norm_param {
    moving_average_fraction: 0.899999976158
    eps: 9.99999974738e-06
  }
}
layer {
  name: "scale2129"
  type: "Scale"
  bottom: "conv2128"
  top: "conv2128"
  scale_param {
    bias_term: true
  }
}
layer {
  name: "relu2130"
  type: "ReLU"
  bottom: "conv2128"
  top: "conv2128"
}
layer {
  name: "conv2131"
  type: "Convolution"
  bottom: "conv2128"
  top: "conv2131"
  convolution_param {
    num_output: 512
    bias_term: false
    pad: 1
    kernel_size: 3
    group: 2
    stride: 1
  }
}
layer {
  name: "bn2132"
  type: "BatchNorm"
  bottom: "conv2131"
  top: "conv2131"
  batch_norm_param {
    moving_average_fraction: 0.899999976158
    eps: 9.99999974738e-06
  }
}
layer {
  name: "scale2132"
  type: "Scale"
  bottom: "conv2131"
  top: "conv2131"
  scale_param {
    bias_term: true
  }
}
layer {
  name: "relu2133"
  type: "ReLU"
  bottom: "conv2131"
  top: "conv2131"
}
layer {
  name: "slice2134"
  type: "Slice"
  bottom: "conv2131"
  top: "slice2134-0"
  top: "slice2134-1"
  slice_param {
    slice_point: 256
    axis: 1
  }
}
layer {
  name: "add2135"
  type: "Eltwise"
  bottom: "slice2134-0"
  bottom: "slice2134-1"
  top: "add2135"
  eltwise_param {
    operation: SUM
  }
}
layer {
  name: "pool2136"
  type: "Pooling"
  bottom: "add2135"
  top: "pool2136"
  pooling_param {
    pool: AVE
    global_pooling: true
  }
}
layer {
  name: "conv2137"
  type: "Convolution"
  bottom: "pool2136"
  top: "conv2137"
  convolution_param {
    num_output: 128
    bias_term: true
    pad: 0
    kernel_size: 1
    stride: 1
  }
}
layer {
  name: "bn2138"
  type: "BatchNorm"
  bottom: "conv2137"
  top: "conv2137"
  batch_norm_param {
    moving_average_fraction: 0.899999976158
    eps: 9.99999974738e-06
  }
}
layer {
  name: "scale2138"
  type: "Scale"
  bottom: "conv2137"
  top: "conv2137"
  scale_param {
    bias_term: true
  }
}
layer {
  name: "relu2139"
  type: "ReLU"
  bottom: "conv2137"
  top: "conv2137"
}
layer {
  name: "conv2140"
  type: "Convolution"
  bottom: "conv2137"
  top: "conv2140"
  convolution_param {
    num_output: 512
    bias_term: true
    pad: 0
    kernel_size: 1
    stride: 1
  }
}
layer {
  name: "reshape2142"
  type: "Reshape"
  bottom: "conv2140"
  top: "reshape2142"
  reshape_param {
    shape {
      dim: 0
      dim: 1
      dim: 2
      dim: -1
    }
  }
}
layer {
  name: "perm2143"
  type: "Permute"
  bottom: "reshape2142"
  top: "perm2143"
  permute_param {
    order: 0
    order: 2
    order: 1
    order: 3
  }
}
layer {
  name: "softmax2144"
  type: "Softmax"
  bottom: "perm2143"
  top: "softmax2144"
  softmax_param {
    axis: 1
  }
}
layer {
  name: "reshape2146"
  type: "Reshape"
  bottom: "softmax2144"
  top: "reshape2146"
  reshape_param {
    shape {
      dim: 0
      dim: -1
    }
  }
}
layer {
  name: "slice2147"
  type: "Slice"
  bottom: "reshape2146"
  top: "slice2147-0"
  top: "slice2147-1"
  slice_param {
    slice_point: 256
    axis: 1
  }
}
layer {
  name: "mul2148"
  type: "Scale"
  bottom: "slice2134-0"
  bottom: "slice2147-0"
  top: "mul2148"
  scale_param {
    axis: 0
    bias_term: false
  }
}
layer {
  name: "mul2149"
  type: "Scale"
  bottom: "slice2134-1"
  bottom: "slice2147-1"
  top: "mul2149"
  scale_param {
    axis: 0
    bias_term: false
  }
}
layer {
  name: "add2150"
  type: "Eltwise"
  bottom: "mul2148"
  bottom: "mul2149"
  top: "add2150"
  eltwise_param {
    operation: SUM
  }
}
layer {
  name: "conv2151"
  type: "Convolution"
  bottom: "add2150"
  top: "conv2151"
  convolution_param {
    num_output: 1024
    bias_term: false
    pad: 0
    kernel_size: 1
    stride: 1
  }
}
layer {
  name: "bn2152"
  type: "BatchNorm"
  bottom: "conv2151"
  top: "conv2151"
  batch_norm_param {
    moving_average_fraction: 0.899999976158
    eps: 9.99999974738e-06
  }
}
layer {
  name: "scale2152"
  type: "Scale"
  bottom: "conv2151"
  top: "conv2151"
  scale_param {
    bias_term: true
  }
}
layer {
  name: "add2153"
  type: "Eltwise"
  bottom: "conv2151"
  bottom: "add2126"
  top: "add2153"
  eltwise_param {
    operation: SUM
  }
}
layer {
  name: "relu2154"
  type: "ReLU"
  bottom: "add2153"
  top: "add2153"
}
layer {
  name: "conv2155"
  type: "Convolution"
  bottom: "add2153"
  top: "conv2155"
  convolution_param {
    num_output: 256
    bias_term: false
    pad: 0
    kernel_size: 1
    stride: 1
  }
}
layer {
  name: "bn2156"
  type: "BatchNorm"
  bottom: "conv2155"
  top: "conv2155"
  batch_norm_param {
    moving_average_fraction: 0.899999976158
    eps: 9.99999974738e-06
  }
}
layer {
  name: "scale2156"
  type: "Scale"
  bottom: "conv2155"
  top: "conv2155"
  scale_param {
    bias_term: true
  }
}
layer {
  name: "relu2157"
  type: "ReLU"
  bottom: "conv2155"
  top: "conv2155"
}
layer {
  name: "conv2158"
  type: "Convolution"
  bottom: "conv2155"
  top: "conv2158"
  convolution_param {
    num_output: 512
    bias_term: false
    pad: 1
    kernel_size: 3
    group: 2
    stride: 1
  }
}
layer {
  name: "bn2159"
  type: "BatchNorm"
  bottom: "conv2158"
  top: "conv2158"
  batch_norm_param {
    moving_average_fraction: 0.899999976158
    eps: 9.99999974738e-06
  }
}
layer {
  name: "scale2159"
  type: "Scale"
  bottom: "conv2158"
  top: "conv2158"
  scale_param {
    bias_term: true
  }
}
layer {
  name: "relu2160"
  type: "ReLU"
  bottom: "conv2158"
  top: "conv2158"
}
layer {
  name: "slice2161"
  type: "Slice"
  bottom: "conv2158"
  top: "slice2161-0"
  top: "slice2161-1"
  slice_param {
    slice_point: 256
    axis: 1
  }
}
layer {
  name: "add2162"
  type: "Eltwise"
  bottom: "slice2161-0"
  bottom: "slice2161-1"
  top: "add2162"
  eltwise_param {
    operation: SUM
  }
}
layer {
  name: "pool2163"
  type: "Pooling"
  bottom: "add2162"
  top: "pool2163"
  pooling_param {
    pool: AVE
    global_pooling: true
  }
}
layer {
  name: "conv2164"
  type: "Convolution"
  bottom: "pool2163"
  top: "conv2164"
  convolution_param {
    num_output: 128
    bias_term: true
    pad: 0
    kernel_size: 1
    stride: 1
  }
}
layer {
  name: "bn2165"
  type: "BatchNorm"
  bottom: "conv2164"
  top: "conv2164"
  batch_norm_param {
    moving_average_fraction: 0.899999976158
    eps: 9.99999974738e-06
  }
}
layer {
  name: "scale2165"
  type: "Scale"
  bottom: "conv2164"
  top: "conv2164"
  scale_param {
    bias_term: true
  }
}
layer {
  name: "relu2166"
  type: "ReLU"
  bottom: "conv2164"
  top: "conv2164"
}
layer {
  name: "conv2167"
  type: "Convolution"
  bottom: "conv2164"
  top: "conv2167"
  convolution_param {
    num_output: 512
    bias_term: true
    pad: 0
    kernel_size: 1
    stride: 1
  }
}
layer {
  name: "reshape2169"
  type: "Reshape"
  bottom: "conv2167"
  top: "reshape2169"
  reshape_param {
    shape {
      dim: 0
      dim: 1
      dim: 2
      dim: -1
    }
  }
}
layer {
  name: "perm2170"
  type: "Permute"
  bottom: "reshape2169"
  top: "perm2170"
  permute_param {
    order: 0
    order: 2
    order: 1
    order: 3
  }
}
layer {
  name: "softmax2171"
  type: "Softmax"
  bottom: "perm2170"
  top: "softmax2171"
  softmax_param {
    axis: 1
  }
}
layer {
  name: "reshape2173"
  type: "Reshape"
  bottom: "softmax2171"
  top: "reshape2173"
  reshape_param {
    shape {
      dim: 0
      dim: -1
    }
  }
}
layer {
  name: "slice2174"
  type: "Slice"
  bottom: "reshape2173"
  top: "slice2174-0"
  top: "slice2174-1"
  slice_param {
    slice_point: 256
    axis: 1
  }
}
layer {
  name: "mul2175"
  type: "Scale"
  bottom: "slice2161-0"
  bottom: "slice2174-0"
  top: "mul2175"
  scale_param {
    axis: 0
    bias_term: false
  }
}
layer {
  name: "mul2176"
  type: "Scale"
  bottom: "slice2161-1"
  bottom: "slice2174-1"
  top: "mul2176"
  scale_param {
    axis: 0
    bias_term: false
  }
}
layer {
  name: "add2177"
  type: "Eltwise"
  bottom: "mul2175"
  bottom: "mul2176"
  top: "add2177"
  eltwise_param {
    operation: SUM
  }
}
layer {
  name: "conv2178"
  type: "Convolution"
  bottom: "add2177"
  top: "conv2178"
  convolution_param {
    num_output: 1024
    bias_term: false
    pad: 0
    kernel_size: 1
    stride: 1
  }
}
layer {
  name: "bn2179"
  type: "BatchNorm"
  bottom: "conv2178"
  top: "conv2178"
  batch_norm_param {
    moving_average_fraction: 0.899999976158
    eps: 9.99999974738e-06
  }
}
layer {
  name: "scale2179"
  type: "Scale"
  bottom: "conv2178"
  top: "conv2178"
  scale_param {
    bias_term: true
  }
}
layer {
  name: "add2180"
  type: "Eltwise"
  bottom: "conv2178"
  bottom: "add2153"
  top: "add2180"
  eltwise_param {
    operation: SUM
  }
}
layer {
  name: "relu2181"
  type: "ReLU"
  bottom: "add2180"
  top: "add2180"
}
layer {
  name: "conv2182"
  type: "Convolution"
  bottom: "add2180"
  top: "conv2182"
  convolution_param {
    num_output: 256
    bias_term: false
    pad: 0
    kernel_size: 1
    stride: 1
  }
}
layer {
  name: "bn2183"
  type: "BatchNorm"
  bottom: "conv2182"
  top: "conv2182"
  batch_norm_param {
    moving_average_fraction: 0.899999976158
    eps: 9.99999974738e-06
  }
}
layer {
  name: "scale2183"
  type: "Scale"
  bottom: "conv2182"
  top: "conv2182"
  scale_param {
    bias_term: true
  }
}
layer {
  name: "relu2184"
  type: "ReLU"
  bottom: "conv2182"
  top: "conv2182"
}
layer {
  name: "conv2185"
  type: "Convolution"
  bottom: "conv2182"
  top: "conv2185"
  convolution_param {
    num_output: 512
    bias_term: false
    pad: 1
    kernel_size: 3
    group: 2
    stride: 1
  }
}
layer {
  name: "bn2186"
  type: "BatchNorm"
  bottom: "conv2185"
  top: "conv2185"
  batch_norm_param {
    moving_average_fraction: 0.899999976158
    eps: 9.99999974738e-06
  }
}
layer {
  name: "scale2186"
  type: "Scale"
  bottom: "conv2185"
  top: "conv2185"
  scale_param {
    bias_term: true
  }
}
layer {
  name: "relu2187"
  type: "ReLU"
  bottom: "conv2185"
  top: "conv2185"
}
layer {
  name: "slice2188"
  type: "Slice"
  bottom: "conv2185"
  top: "slice2188-0"
  top: "slice2188-1"
  slice_param {
    slice_point: 256
    axis: 1
  }
}
layer {
  name: "add2189"
  type: "Eltwise"
  bottom: "slice2188-0"
  bottom: "slice2188-1"
  top: "add2189"
  eltwise_param {
    operation: SUM
  }
}
layer {
  name: "pool2190"
  type: "Pooling"
  bottom: "add2189"
  top: "pool2190"
  pooling_param {
    pool: AVE
    global_pooling: true
  }
}
layer {
  name: "conv2191"
  type: "Convolution"
  bottom: "pool2190"
  top: "conv2191"
  convolution_param {
    num_output: 128
    bias_term: true
    pad: 0
    kernel_size: 1
    stride: 1
  }
}
layer {
  name: "bn2192"
  type: "BatchNorm"
  bottom: "conv2191"
  top: "conv2191"
  batch_norm_param {
    moving_average_fraction: 0.899999976158
    eps: 9.99999974738e-06
  }
}
layer {
  name: "scale2192"
  type: "Scale"
  bottom: "conv2191"
  top: "conv2191"
  scale_param {
    bias_term: true
  }
}
layer {
  name: "relu2193"
  type: "ReLU"
  bottom: "conv2191"
  top: "conv2191"
}
layer {
  name: "conv2194"
  type: "Convolution"
  bottom: "conv2191"
  top: "conv2194"
  convolution_param {
    num_output: 512
    bias_term: true
    pad: 0
    kernel_size: 1
    stride: 1
  }
}
layer {
  name: "reshape2196"
  type: "Reshape"
  bottom: "conv2194"
  top: "reshape2196"
  reshape_param {
    shape {
      dim: 0
      dim: 1
      dim: 2
      dim: -1
    }
  }
}
layer {
  name: "perm2197"
  type: "Permute"
  bottom: "reshape2196"
  top: "perm2197"
  permute_param {
    order: 0
    order: 2
    order: 1
    order: 3
  }
}
layer {
  name: "softmax2198"
  type: "Softmax"
  bottom: "perm2197"
  top: "softmax2198"
  softmax_param {
    axis: 1
  }
}
layer {
  name: "reshape2200"
  type: "Reshape"
  bottom: "softmax2198"
  top: "reshape2200"
  reshape_param {
    shape {
      dim: 0
      dim: -1
    }
  }
}
layer {
  name: "slice2201"
  type: "Slice"
  bottom: "reshape2200"
  top: "slice2201-0"
  top: "slice2201-1"
  slice_param {
    slice_point: 256
    axis: 1
  }
}
layer {
  name: "mul2202"
  type: "Scale"
  bottom: "slice2188-0"
  bottom: "slice2201-0"
  top: "mul2202"
  scale_param {
    axis: 0
    bias_term: false
  }
}
layer {
  name: "mul2203"
  type: "Scale"
  bottom: "slice2188-1"
  bottom: "slice2201-1"
  top: "mul2203"
  scale_param {
    axis: 0
    bias_term: false
  }
}
layer {
  name: "add2204"
  type: "Eltwise"
  bottom: "mul2202"
  bottom: "mul2203"
  top: "add2204"
  eltwise_param {
    operation: SUM
  }
}
layer {
  name: "conv2205"
  type: "Convolution"
  bottom: "add2204"
  top: "conv2205"
  convolution_param {
    num_output: 1024
    bias_term: false
    pad: 0
    kernel_size: 1
    stride: 1
  }
}
layer {
  name: "bn2206"
  type: "BatchNorm"
  bottom: "conv2205"
  top: "conv2205"
  batch_norm_param {
    moving_average_fraction: 0.899999976158
    eps: 9.99999974738e-06
  }
}
layer {
  name: "scale2206"
  type: "Scale"
  bottom: "conv2205"
  top: "conv2205"
  scale_param {
    bias_term: true
  }
}
layer {
  name: "add2207"
  type: "Eltwise"
  bottom: "conv2205"
  bottom: "add2180"
  top: "add2207"
  eltwise_param {
    operation: SUM
  }
}
layer {
  name: "relu2208"
  type: "ReLU"
  bottom: "add2207"
  top: "add2207"
}
layer {
  name: "conv2209"
  type: "Convolution"
  bottom: "add2207"
  top: "conv2209"
  convolution_param {
    num_output: 512
    bias_term: false
    pad: 0
    kernel_size: 1
    stride: 1
  }
}
layer {
  name: "bn2210"
  type: "BatchNorm"
  bottom: "conv2209"
  top: "conv2209"
  batch_norm_param {
    moving_average_fraction: 0.899999976158
    eps: 9.99999974738e-06
  }
}
layer {
  name: "scale2210"
  type: "Scale"
  bottom: "conv2209"
  top: "conv2209"
  scale_param {
    bias_term: true
  }
}
layer {
  name: "relu2211"
  type: "ReLU"
  bottom: "conv2209"
  top: "conv2209"
}
layer {
  name: "conv2212"
  type: "Convolution"
  bottom: "conv2209"
  top: "conv2212"
  convolution_param {
    num_output: 1024
    bias_term: false
    pad: 1
    kernel_size: 3
    group: 2
    stride: 1
  }
}
layer {
  name: "bn2213"
  type: "BatchNorm"
  bottom: "conv2212"
  top: "conv2212"
  batch_norm_param {
    moving_average_fraction: 0.899999976158
    eps: 9.99999974738e-06
  }
}
layer {
  name: "scale2213"
  type: "Scale"
  bottom: "conv2212"
  top: "conv2212"
  scale_param {
    bias_term: true
  }
}
layer {
  name: "relu2214"
  type: "ReLU"
  bottom: "conv2212"
  top: "conv2212"
}
layer {
  name: "slice2215"
  type: "Slice"
  bottom: "conv2212"
  top: "slice2215-0"
  top: "slice2215-1"
  slice_param {
    slice_point: 512
    axis: 1
  }
}
layer {
  name: "add2216"
  type: "Eltwise"
  bottom: "slice2215-0"
  bottom: "slice2215-1"
  top: "add2216"
  eltwise_param {
    operation: SUM
  }
}
layer {
  name: "pool2217"
  type: "Pooling"
  bottom: "add2216"
  top: "pool2217"
  pooling_param {
    pool: AVE
    global_pooling: true
  }
}
layer {
  name: "conv2218"
  type: "Convolution"
  bottom: "pool2217"
  top: "conv2218"
  convolution_param {
    num_output: 256
    bias_term: true
    pad: 0
    kernel_size: 1
    stride: 1
  }
}
layer {
  name: "bn2219"
  type: "BatchNorm"
  bottom: "conv2218"
  top: "conv2218"
  batch_norm_param {
    moving_average_fraction: 0.899999976158
    eps: 9.99999974738e-06
  }
}
layer {
  name: "scale2219"
  type: "Scale"
  bottom: "conv2218"
  top: "conv2218"
  scale_param {
    bias_term: true
  }
}
layer {
  name: "relu2220"
  type: "ReLU"
  bottom: "conv2218"
  top: "conv2218"
}
layer {
  name: "conv2221"
  type: "Convolution"
  bottom: "conv2218"
  top: "conv2221"
  convolution_param {
    num_output: 1024
    bias_term: true
    pad: 0
    kernel_size: 1
    stride: 1
  }
}
layer {
  name: "reshape2223"
  type: "Reshape"
  bottom: "conv2221"
  top: "reshape2223"
  reshape_param {
    shape {
      dim: 0
      dim: 1
      dim: 2
      dim: -1
    }
  }
}
layer {
  name: "perm2224"
  type: "Permute"
  bottom: "reshape2223"
  top: "perm2224"
  permute_param {
    order: 0
    order: 2
    order: 1
    order: 3
  }
}
layer {
  name: "softmax2225"
  type: "Softmax"
  bottom: "perm2224"
  top: "softmax2225"
  softmax_param {
    axis: 1
  }
}
layer {
  name: "reshape2227"
  type: "Reshape"
  bottom: "softmax2225"
  top: "reshape2227"
  reshape_param {
    shape {
      dim: 0
      dim: -1
    }
  }
}
layer {
  name: "slice2228"
  type: "Slice"
  bottom: "reshape2227"
  top: "slice2228-0"
  top: "slice2228-1"
  slice_param {
    slice_point: 512
    axis: 1
  }
}
layer {
  name: "mul2229"
  type: "Scale"
  bottom: "slice2215-0"
  bottom: "slice2228-0"
  top: "mul2229"
  scale_param {
    axis: 0
    bias_term: false
  }
}
layer {
  name: "mul2230"
  type: "Scale"
  bottom: "slice2215-1"
  bottom: "slice2228-1"
  top: "mul2230"
  scale_param {
    axis: 0
    bias_term: false
  }
}
layer {
  name: "add2231"
  type: "Eltwise"
  bottom: "mul2229"
  bottom: "mul2230"
  top: "add2231"
  eltwise_param {
    operation: SUM
  }
}
layer {
  name: "pool2232"
  type: "Pooling"
  bottom: "add2231"
  top: "pool2232"
  pooling_param {
    pool: AVE
    kernel_size: 3
    stride: 2
    pad: 1
    round_mode: FLOOR
  }
}
layer {
  name: "conv2233"
  type: "Convolution"
  bottom: "pool2232"
  top: "conv2233"
  convolution_param {
    num_output: 2048
    bias_term: false
    pad: 0
    kernel_size: 1
    stride: 1
  }
}
layer {
  name: "bn2234"
  type: "BatchNorm"
  bottom: "conv2233"
  top: "conv2233"
  batch_norm_param {
    moving_average_fraction: 0.899999976158
    eps: 9.99999974738e-06
  }
}
layer {
  name: "scale2234"
  type: "Scale"
  bottom: "conv2233"
  top: "conv2233"
  scale_param {
    bias_term: true
  }
}
layer {
  name: "pool2235"
  type: "Pooling"
  bottom: "add2207"
  top: "pool2235"
  pooling_param {
    pool: AVE
    kernel_size: 2
    stride: 2
    pad: 0
  }
}
layer {
  name: "conv2236"
  type: "Convolution"
  bottom: "pool2235"
  top: "conv2236"
  convolution_param {
    num_output: 2048
    bias_term: false
    pad: 0
    kernel_size: 1
    stride: 1
  }
}
layer {
  name: "bn2237"
  type: "BatchNorm"
  bottom: "conv2236"
  top: "conv2236"
  batch_norm_param {
    moving_average_fraction: 0.899999976158
    eps: 9.99999974738e-06
  }
}
layer {
  name: "scale2237"
  type: "Scale"
  bottom: "conv2236"
  top: "conv2236"
  scale_param {
    bias_term: true
  }
}
layer {
  name: "add2238"
  type: "Eltwise"
  bottom: "conv2233"
  bottom: "conv2236"
  top: "add2238"
  eltwise_param {
    operation: SUM
  }
}
layer {
  name: "relu2239"
  type: "ReLU"
  bottom: "add2238"
  top: "add2238"
}
layer {
  name: "conv2240"
  type: "Convolution"
  bottom: "add2238"
  top: "conv2240"
  convolution_param {
    num_output: 512
    bias_term: false
    pad: 0
    kernel_size: 1
    stride: 1
  }
}
layer {
  name: "bn2241"
  type: "BatchNorm"
  bottom: "conv2240"
  top: "conv2240"
  batch_norm_param {
    moving_average_fraction: 0.899999976158
    eps: 9.99999974738e-06
  }
}
layer {
  name: "scale2241"
  type: "Scale"
  bottom: "conv2240"
  top: "conv2240"
  scale_param {
    bias_term: true
  }
}
layer {
  name: "relu2242"
  type: "ReLU"
  bottom: "conv2240"
  top: "conv2240"
}
layer {
  name: "conv2243"
  type: "Convolution"
  bottom: "conv2240"
  top: "conv2243"
  convolution_param {
    num_output: 1024
    bias_term: false
    pad: 1
    kernel_size: 3
    group: 2
    stride: 1
  }
}
layer {
  name: "bn2244"
  type: "BatchNorm"
  bottom: "conv2243"
  top: "conv2243"
  batch_norm_param {
    moving_average_fraction: 0.899999976158
    eps: 9.99999974738e-06
  }
}
layer {
  name: "scale2244"
  type: "Scale"
  bottom: "conv2243"
  top: "conv2243"
  scale_param {
    bias_term: true
  }
}
layer {
  name: "relu2245"
  type: "ReLU"
  bottom: "conv2243"
  top: "conv2243"
}
layer {
  name: "slice2246"
  type: "Slice"
  bottom: "conv2243"
  top: "slice2246-0"
  top: "slice2246-1"
  slice_param {
    slice_point: 512
    axis: 1
  }
}
layer {
  name: "add2247"
  type: "Eltwise"
  bottom: "slice2246-0"
  bottom: "slice2246-1"
  top: "add2247"
  eltwise_param {
    operation: SUM
  }
}
layer {
  name: "pool2248"
  type: "Pooling"
  bottom: "add2247"
  top: "pool2248"
  pooling_param {
    pool: AVE
    global_pooling: true
  }
}
layer {
  name: "conv2249"
  type: "Convolution"
  bottom: "pool2248"
  top: "conv2249"
  convolution_param {
    num_output: 256
    bias_term: true
    pad: 0
    kernel_size: 1
    stride: 1
  }
}
layer {
  name: "bn2250"
  type: "BatchNorm"
  bottom: "conv2249"
  top: "conv2249"
  batch_norm_param {
    moving_average_fraction: 0.899999976158
    eps: 9.99999974738e-06
  }
}
layer {
  name: "scale2250"
  type: "Scale"
  bottom: "conv2249"
  top: "conv2249"
  scale_param {
    bias_term: true
  }
}
layer {
  name: "relu2251"
  type: "ReLU"
  bottom: "conv2249"
  top: "conv2249"
}
layer {
  name: "conv2252"
  type: "Convolution"
  bottom: "conv2249"
  top: "conv2252"
  convolution_param {
    num_output: 1024
    bias_term: true
    pad: 0
    kernel_size: 1
    stride: 1
  }
}
layer {
  name: "reshape2254"
  type: "Reshape"
  bottom: "conv2252"
  top: "reshape2254"
  reshape_param {
    shape {
      dim: 0
      dim: 1
      dim: 2
      dim: -1
    }
  }
}
layer {
  name: "perm2255"
  type: "Permute"
  bottom: "reshape2254"
  top: "perm2255"
  permute_param {
    order: 0
    order: 2
    order: 1
    order: 3
  }
}
layer {
  name: "softmax2256"
  type: "Softmax"
  bottom: "perm2255"
  top: "softmax2256"
  softmax_param {
    axis: 1
  }
}
layer {
  name: "reshape2258"
  type: "Reshape"
  bottom: "softmax2256"
  top: "reshape2258"
  reshape_param {
    shape {
      dim: 0
      dim: -1
    }
  }
}
layer {
  name: "slice2259"
  type: "Slice"
  bottom: "reshape2258"
  top: "slice2259-0"
  top: "slice2259-1"
  slice_param {
    slice_point: 512
    axis: 1
  }
}
layer {
  name: "mul2260"
  type: "Scale"
  bottom: "slice2246-0"
  bottom: "slice2259-0"
  top: "mul2260"
  scale_param {
    axis: 0
    bias_term: false
  }
}
layer {
  name: "mul2261"
  type: "Scale"
  bottom: "slice2246-1"
  bottom: "slice2259-1"
  top: "mul2261"
  scale_param {
    axis: 0
    bias_term: false
  }
}
layer {
  name: "add2262"
  type: "Eltwise"
  bottom: "mul2260"
  bottom: "mul2261"
  top: "add2262"
  eltwise_param {
    operation: SUM
  }
}
layer {
  name: "conv2263"
  type: "Convolution"
  bottom: "add2262"
  top: "conv2263"
  convolution_param {
    num_output: 2048
    bias_term: false
    pad: 0
    kernel_size: 1
    stride: 1
  }
}
layer {
  name: "bn2264"
  type: "BatchNorm"
  bottom: "conv2263"
  top: "conv2263"
  batch_norm_param {
    moving_average_fraction: 0.899999976158
    eps: 9.99999974738e-06
  }
}
layer {
  name: "scale2264"
  type: "Scale"
  bottom: "conv2263"
  top: "conv2263"
  scale_param {
    bias_term: true
  }
}
layer {
  name: "add2265"
  type: "Eltwise"
  bottom: "conv2263"
  bottom: "add2238"
  top: "add2265"
  eltwise_param {
    operation: SUM
  }
}
layer {
  name: "relu2266"
  type: "ReLU"
  bottom: "add2265"
  top: "add2265"
}
layer {
  name: "conv2267"
  type: "Convolution"
  bottom: "add2265"
  top: "conv2267"
  convolution_param {
    num_output: 512
    bias_term: false
    pad: 0
    kernel_size: 1
    stride: 1
  }
}
layer {
  name: "bn2268"
  type: "BatchNorm"
  bottom: "conv2267"
  top: "conv2267"
  batch_norm_param {
    moving_average_fraction: 0.899999976158
    eps: 9.99999974738e-06
  }
}
layer {
  name: "scale2268"
  type: "Scale"
  bottom: "conv2267"
  top: "conv2267"
  scale_param {
    bias_term: true
  }
}
layer {
  name: "relu2269"
  type: "ReLU"
  bottom: "conv2267"
  top: "conv2267"
}
layer {
  name: "conv2270"
  type: "Convolution"
  bottom: "conv2267"
  top: "conv2270"
  convolution_param {
    num_output: 1024
    bias_term: false
    pad: 1
    kernel_size: 3
    group: 2
    stride: 1
  }
}
layer {
  name: "bn2271"
  type: "BatchNorm"
  bottom: "conv2270"
  top: "conv2270"
  batch_norm_param {
    moving_average_fraction: 0.899999976158
    eps: 9.99999974738e-06
  }
}
layer {
  name: "scale2271"
  type: "Scale"
  bottom: "conv2270"
  top: "conv2270"
  scale_param {
    bias_term: true
  }
}
layer {
  name: "relu2272"
  type: "ReLU"
  bottom: "conv2270"
  top: "conv2270"
}
layer {
  name: "slice2273"
  type: "Slice"
  bottom: "conv2270"
  top: "slice2273-0"
  top: "slice2273-1"
  slice_param {
    slice_point: 512
    axis: 1
  }
}
layer {
  name: "add2274"
  type: "Eltwise"
  bottom: "slice2273-0"
  bottom: "slice2273-1"
  top: "add2274"
  eltwise_param {
    operation: SUM
  }
}
layer {
  name: "pool2275"
  type: "Pooling"
  bottom: "add2274"
  top: "pool2275"
  pooling_param {
    pool: AVE
    global_pooling: true
  }
}
layer {
  name: "conv2276"
  type: "Convolution"
  bottom: "pool2275"
  top: "conv2276"
  convolution_param {
    num_output: 256
    bias_term: true
    pad: 0
    kernel_size: 1
    stride: 1
  }
}
layer {
  name: "bn2277"
  type: "BatchNorm"
  bottom: "conv2276"
  top: "conv2276"
  batch_norm_param {
    moving_average_fraction: 0.899999976158
    eps: 9.99999974738e-06
  }
}
layer {
  name: "scale2277"
  type: "Scale"
  bottom: "conv2276"
  top: "conv2276"
  scale_param {
    bias_term: true
  }
}
layer {
  name: "relu2278"
  type: "ReLU"
  bottom: "conv2276"
  top: "conv2276"
}
layer {
  name: "conv2279"
  type: "Convolution"
  bottom: "conv2276"
  top: "conv2279"
  convolution_param {
    num_output: 1024
    bias_term: true
    pad: 0
    kernel_size: 1
    stride: 1
  }
}
layer {
  name: "reshape2281"
  type: "Reshape"
  bottom: "conv2279"
  top: "reshape2281"
  reshape_param {
    shape {
      dim: 0
      dim: 1
      dim: 2
      dim: -1
    }
  }
}
layer {
  name: "perm2282"
  type: "Permute"
  bottom: "reshape2281"
  top: "perm2282"
  permute_param {
    order: 0
    order: 2
    order: 1
    order: 3
  }
}
layer {
  name: "softmax2283"
  type: "Softmax"
  bottom: "perm2282"
  top: "softmax2283"
  softmax_param {
    axis: 1
  }
}
layer {
  name: "reshape2285"
  type: "Reshape"
  bottom: "softmax2283"
  top: "reshape2285"
  reshape_param {
    shape {
      dim: 0
      dim: -1
    }
  }
}
layer {
  name: "slice2286"
  type: "Slice"
  bottom: "reshape2285"
  top: "slice2286-0"
  top: "slice2286-1"
  slice_param {
    slice_point: 512
    axis: 1
  }
}
layer {
  name: "mul2287"
  type: "Scale"
  bottom: "slice2273-0"
  bottom: "slice2286-0"
  top: "mul2287"
  scale_param {
    axis: 0
    bias_term: false
  }
}
layer {
  name: "mul2288"
  type: "Scale"
  bottom: "slice2273-1"
  bottom: "slice2286-1"
  top: "mul2288"
  scale_param {
    axis: 0
    bias_term: false
  }
}
layer {
  name: "add2289"
  type: "Eltwise"
  bottom: "mul2287"
  bottom: "mul2288"
  top: "add2289"
  eltwise_param {
    operation: SUM
  }
}
layer {
  name: "conv2290"
  type: "Convolution"
  bottom: "add2289"
  top: "conv2290"
  convolution_param {
    num_output: 2048
    bias_term: false
    pad: 0
    kernel_size: 1
    stride: 1
  }
}
layer {
  name: "bn2291"
  type: "BatchNorm"
  bottom: "conv2290"
  top: "conv2290"
  batch_norm_param {
    moving_average_fraction: 0.899999976158
    eps: 9.99999974738e-06
  }
}
layer {
  name: "scale2291"
  type: "Scale"
  bottom: "conv2290"
  top: "conv2290"
  scale_param {
    bias_term: true
  }
}
layer {
  name: "add2292"
  type: "Eltwise"
  bottom: "conv2290"
  bottom: "add2265"
  top: "add2292"
  eltwise_param {
    operation: SUM
  }
}
layer {
  name: "relu2293"
  type: "ReLU"
  bottom: "add2292"
  top: "add2292"
}
layer {
  name: "conv2294"
  type: "Convolution"
  bottom: "add2292"
  top: "conv2294"
  convolution_param {
    num_output: 512
    bias_term: false
    pad: 0
    kernel_size: 1
    stride: 1
  }
}
layer {
  name: "bn2295"
  type: "BatchNorm"
  bottom: "conv2294"
  top: "conv2294"
  batch_norm_param {
    moving_average_fraction: 0.899999976158
    eps: 9.99999974738e-06
  }
}
layer {
  name: "scale2295"
  type: "Scale"
  bottom: "conv2294"
  top: "conv2294"
  scale_param {
    bias_term: true
  }
}
layer {
  name: "relu2296"
  type: "ReLU"
  bottom: "conv2294"
  top: "conv2294"
}
layer {
  name: "conv2297"
  type: "Convolution"
  bottom: "conv2294"
  top: "conv2297"
  convolution_param {
    num_output: 1024
    bias_term: false
    pad: 1
    kernel_size: 3
    group: 2
    stride: 1
  }
}
layer {
  name: "bn2298"
  type: "BatchNorm"
  bottom: "conv2297"
  top: "conv2297"
  batch_norm_param {
    moving_average_fraction: 0.899999976158
    eps: 9.99999974738e-06
  }
}
layer {
  name: "scale2298"
  type: "Scale"
  bottom: "conv2297"
  top: "conv2297"
  scale_param {
    bias_term: true
  }
}
layer {
  name: "relu2299"
  type: "ReLU"
  bottom: "conv2297"
  top: "conv2297"
}
layer {
  name: "slice2300"
  type: "Slice"
  bottom: "conv2297"
  top: "slice2300-0"
  top: "slice2300-1"
  slice_param {
    slice_point: 512
    axis: 1
  }
}
layer {
  name: "add2301"
  type: "Eltwise"
  bottom: "slice2300-0"
  bottom: "slice2300-1"
  top: "add2301"
  eltwise_param {
    operation: SUM
  }
}
layer {
  name: "pool2302"
  type: "Pooling"
  bottom: "add2301"
  top: "pool2302"
  pooling_param {
    pool: AVE
    global_pooling: true
  }
}
layer {
  name: "conv2303"
  type: "Convolution"
  bottom: "pool2302"
  top: "conv2303"
  convolution_param {
    num_output: 256
    bias_term: true
    pad: 0
    kernel_size: 1
    stride: 1
  }
}
layer {
  name: "bn2304"
  type: "BatchNorm"
  bottom: "conv2303"
  top: "conv2303"
  batch_norm_param {
    moving_average_fraction: 0.899999976158
    eps: 9.99999974738e-06
  }
}
layer {
  name: "scale2304"
  type: "Scale"
  bottom: "conv2303"
  top: "conv2303"
  scale_param {
    bias_term: true
  }
}
layer {
  name: "relu2305"
  type: "ReLU"
  bottom: "conv2303"
  top: "conv2303"
}
layer {
  name: "conv2306"
  type: "Convolution"
  bottom: "conv2303"
  top: "conv2306"
  convolution_param {
    num_output: 1024
    bias_term: true
    pad: 0
    kernel_size: 1
    stride: 1
  }
}
layer {
  name: "reshape2308"
  type: "Reshape"
  bottom: "conv2306"
  top: "reshape2308"
  reshape_param {
    shape {
      dim: 0
      dim: 1
      dim: 2
      dim: -1
    }
  }
}
layer {
  name: "perm2309"
  type: "Permute"
  bottom: "reshape2308"
  top: "perm2309"
  permute_param {
    order: 0
    order: 2
    order: 1
    order: 3
  }
}
layer {
  name: "softmax2310"
  type: "Softmax"
  bottom: "perm2309"
  top: "softmax2310"
  softmax_param {
    axis: 1
  }
}
layer {
  name: "reshape2312"
  type: "Reshape"
  bottom: "softmax2310"
  top: "reshape2312"
  reshape_param {
    shape {
      dim: 0
      dim: -1
    }
  }
}
layer {
  name: "slice2313"
  type: "Slice"
  bottom: "reshape2312"
  top: "slice2313-0"
  top: "slice2313-1"
  slice_param {
    slice_point: 512
    axis: 1
  }
}
layer {
  name: "mul2314"
  type: "Scale"
  bottom: "slice2300-0"
  bottom: "slice2313-0"
  top: "mul2314"
  scale_param {
    axis: 0
    bias_term: false
  }
}
layer {
  name: "mul2315"
  type: "Scale"
  bottom: "slice2300-1"
  bottom: "slice2313-1"
  top: "mul2315"
  scale_param {
    axis: 0
    bias_term: false
  }
}
layer {
  name: "add2316"
  type: "Eltwise"
  bottom: "mul2314"
  bottom: "mul2315"
  top: "add2316"
  eltwise_param {
    operation: SUM
  }
}
layer {
  name: "conv2317"
  type: "Convolution"
  bottom: "add2316"
  top: "conv2317"
  convolution_param {
    num_output: 2048
    bias_term: false
    pad: 0
    kernel_size: 1
    stride: 1
  }
}
layer {
  name: "bn2318"
  type: "BatchNorm"
  bottom: "conv2317"
  top: "conv2317"
  batch_norm_param {
    moving_average_fraction: 0.899999976158
    eps: 9.99999974738e-06
  }
}
layer {
  name: "scale2318"
  type: "Scale"
  bottom: "conv2317"
  top: "conv2317"
  scale_param {
    bias_term: true
  }
}
layer {
  name: "add2319"
  type: "Eltwise"
  bottom: "conv2317"
  bottom: "add2292"
  top: "add2319"
  eltwise_param {
    operation: SUM
  }
}
layer {
  name: "relu2320"
  type: "ReLU"
  bottom: "add2319"
  top: "add2319"
}
layer {
  name: "conv2321"
  type: "Convolution"
  bottom: "add2319"
  top: "conv2321"
  convolution_param {
    num_output: 512
    bias_term: false
    pad: 0
    kernel_size: 1
    stride: 1
  }
}
layer {
  name: "bn2322"
  type: "BatchNorm"
  bottom: "conv2321"
  top: "conv2321"
  batch_norm_param {
    moving_average_fraction: 0.899999976158
    eps: 9.99999974738e-06
  }
}
layer {
  name: "scale2322"
  type: "Scale"
  bottom: "conv2321"
  top: "conv2321"
  scale_param {
    bias_term: true
  }
}
layer {
  name: "relu2323"
  type: "ReLU"
  bottom: "conv2321"
  top: "conv2321"
}
layer {
  name: "conv2324"
  type: "Convolution"
  bottom: "conv2321"
  top: "conv2324"
  convolution_param {
    num_output: 1024
    bias_term: false
    pad: 1
    kernel_size: 3
    group: 2
    stride: 1
  }
}
layer {
  name: "bn2325"
  type: "BatchNorm"
  bottom: "conv2324"
  top: "conv2324"
  batch_norm_param {
    moving_average_fraction: 0.899999976158
    eps: 9.99999974738e-06
  }
}
layer {
  name: "scale2325"
  type: "Scale"
  bottom: "conv2324"
  top: "conv2324"
  scale_param {
    bias_term: true
  }
}
layer {
  name: "relu2326"
  type: "ReLU"
  bottom: "conv2324"
  top: "conv2324"
}
layer {
  name: "slice2327"
  type: "Slice"
  bottom: "conv2324"
  top: "slice2327-0"
  top: "slice2327-1"
  slice_param {
    slice_point: 512
    axis: 1
  }
}
layer {
  name: "add2328"
  type: "Eltwise"
  bottom: "slice2327-0"
  bottom: "slice2327-1"
  top: "add2328"
  eltwise_param {
    operation: SUM
  }
}
layer {
  name: "pool2329"
  type: "Pooling"
  bottom: "add2328"
  top: "pool2329"
  pooling_param {
    pool: AVE
    global_pooling: true
  }
}
layer {
  name: "conv2330"
  type: "Convolution"
  bottom: "pool2329"
  top: "conv2330"
  convolution_param {
    num_output: 256
    bias_term: true
    pad: 0
    kernel_size: 1
    stride: 1
  }
}
layer {
  name: "bn2331"
  type: "BatchNorm"
  bottom: "conv2330"
  top: "conv2330"
  batch_norm_param {
    moving_average_fraction: 0.899999976158
    eps: 9.99999974738e-06
  }
}
layer {
  name: "scale2331"
  type: "Scale"
  bottom: "conv2330"
  top: "conv2330"
  scale_param {
    bias_term: true
  }
}
layer {
  name: "relu2332"
  type: "ReLU"
  bottom: "conv2330"
  top: "conv2330"
}
layer {
  name: "conv2333"
  type: "Convolution"
  bottom: "conv2330"
  top: "conv2333"
  convolution_param {
    num_output: 1024
    bias_term: true
    pad: 0
    kernel_size: 1
    stride: 1
  }
}
layer {
  name: "reshape2335"
  type: "Reshape"
  bottom: "conv2333"
  top: "reshape2335"
  reshape_param {
    shape {
      dim: 0
      dim: 1
      dim: 2
      dim: -1
    }
  }
}
layer {
  name: "perm2336"
  type: "Permute"
  bottom: "reshape2335"
  top: "perm2336"
  permute_param {
    order: 0
    order: 2
    order: 1
    order: 3
  }
}
layer {
  name: "softmax2337"
  type: "Softmax"
  bottom: "perm2336"
  top: "softmax2337"
  softmax_param {
    axis: 1
  }
}
layer {
  name: "reshape2339"
  type: "Reshape"
  bottom: "softmax2337"
  top: "reshape2339"
  reshape_param {
    shape {
      dim: 0
      dim: -1
    }
  }
}
layer {
  name: "slice2340"
  type: "Slice"
  bottom: "reshape2339"
  top: "slice2340-0"
  top: "slice2340-1"
  slice_param {
    slice_point: 512
    axis: 1
  }
}
layer {
  name: "mul2341"
  type: "Scale"
  bottom: "slice2327-0"
  bottom: "slice2340-0"
  top: "mul2341"
  scale_param {
    axis: 0
    bias_term: false
  }
}
layer {
  name: "mul2342"
  type: "Scale"
  bottom: "slice2327-1"
  bottom: "slice2340-1"
  top: "mul2342"
  scale_param {
    axis: 0
    bias_term: false
  }
}
layer {
  name: "add2343"
  type: "Eltwise"
  bottom: "mul2341"
  bottom: "mul2342"
  top: "add2343"
  eltwise_param {
    operation: SUM
  }
}
layer {
  name: "conv2344"
  type: "Convolution"
  bottom: "add2343"
  top: "conv2344"
  convolution_param {
    num_output: 2048
    bias_term: false
    pad: 0
    kernel_size: 1
    stride: 1
  }
}
layer {
  name: "bn2345"
  type: "BatchNorm"
  bottom: "conv2344"
  top: "conv2344"
  batch_norm_param {
    moving_average_fraction: 0.899999976158
    eps: 9.99999974738e-06
  }
}
layer {
  name: "scale2345"
  type: "Scale"
  bottom: "conv2344"
  top: "conv2344"
  scale_param {
    bias_term: true
  }
}
layer {
  name: "add2346"
  type: "Eltwise"
  bottom: "conv2344"
  bottom: "add2319"
  top: "add2346"
  eltwise_param {
    operation: SUM
  }
}
layer {
  name: "relu2347"
  type: "ReLU"
  bottom: "add2346"
  top: "add2346"
}
layer {
  name: "conv2348"
  type: "Convolution"
  bottom: "add2346"
  top: "conv2348"
  convolution_param {
    num_output: 512
    bias_term: false
    pad: 0
    kernel_size: 1
    stride: 1
  }
}
layer {
  name: "bn2349"
  type: "BatchNorm"
  bottom: "conv2348"
  top: "conv2348"
  batch_norm_param {
    moving_average_fraction: 0.899999976158
    eps: 9.99999974738e-06
  }
}
layer {
  name: "scale2349"
  type: "Scale"
  bottom: "conv2348"
  top: "conv2348"
  scale_param {
    bias_term: true
  }
}
layer {
  name: "relu2350"
  type: "ReLU"
  bottom: "conv2348"
  top: "conv2348"
}
layer {
  name: "conv2351"
  type: "Convolution"
  bottom: "conv2348"
  top: "conv2351"
  convolution_param {
    num_output: 1024
    bias_term: false
    pad: 1
    kernel_size: 3
    group: 2
    stride: 1
  }
}
layer {
  name: "bn2352"
  type: "BatchNorm"
  bottom: "conv2351"
  top: "conv2351"
  batch_norm_param {
    moving_average_fraction: 0.899999976158
    eps: 9.99999974738e-06
  }
}
layer {
  name: "scale2352"
  type: "Scale"
  bottom: "conv2351"
  top: "conv2351"
  scale_param {
    bias_term: true
  }
}
layer {
  name: "relu2353"
  type: "ReLU"
  bottom: "conv2351"
  top: "conv2351"
}
layer {
  name: "slice2354"
  type: "Slice"
  bottom: "conv2351"
  top: "slice2354-0"
  top: "slice2354-1"
  slice_param {
    slice_point: 512
    axis: 1
  }
}
layer {
  name: "add2355"
  type: "Eltwise"
  bottom: "slice2354-0"
  bottom: "slice2354-1"
  top: "add2355"
  eltwise_param {
    operation: SUM
  }
}
layer {
  name: "pool2356"
  type: "Pooling"
  bottom: "add2355"
  top: "pool2356"
  pooling_param {
    pool: AVE
    global_pooling: true
  }
}
layer {
  name: "conv2357"
  type: "Convolution"
  bottom: "pool2356"
  top: "conv2357"
  convolution_param {
    num_output: 256
    bias_term: true
    pad: 0
    kernel_size: 1
    stride: 1
  }
}
layer {
  name: "bn2358"
  type: "BatchNorm"
  bottom: "conv2357"
  top: "conv2357"
  batch_norm_param {
    moving_average_fraction: 0.899999976158
    eps: 9.99999974738e-06
  }
}
layer {
  name: "scale2358"
  type: "Scale"
  bottom: "conv2357"
  top: "conv2357"
  scale_param {
    bias_term: true
  }
}
layer {
  name: "relu2359"
  type: "ReLU"
  bottom: "conv2357"
  top: "conv2357"
}
layer {
  name: "conv2360"
  type: "Convolution"
  bottom: "conv2357"
  top: "conv2360"
  convolution_param {
    num_output: 1024
    bias_term: true
    pad: 0
    kernel_size: 1
    stride: 1
  }
}
layer {
  name: "reshape2362"
  type: "Reshape"
  bottom: "conv2360"
  top: "reshape2362"
  reshape_param {
    shape {
      dim: 0
      dim: 1
      dim: 2
      dim: -1
    }
  }
}
layer {
  name: "perm2363"
  type: "Permute"
  bottom: "reshape2362"
  top: "perm2363"
  permute_param {
    order: 0
    order: 2
    order: 1
    order: 3
  }
}
layer {
  name: "softmax2364"
  type: "Softmax"
  bottom: "perm2363"
  top: "softmax2364"
  softmax_param {
    axis: 1
  }
}
layer {
  name: "reshape2366"
  type: "Reshape"
  bottom: "softmax2364"
  top: "reshape2366"
  reshape_param {
    shape {
      dim: 0
      dim: -1
    }
  }
}
layer {
  name: "slice2367"
  type: "Slice"
  bottom: "reshape2366"
  top: "slice2367-0"
  top: "slice2367-1"
  slice_param {
    slice_point: 512
    axis: 1
  }
}
layer {
  name: "mul2368"
  type: "Scale"
  bottom: "slice2354-0"
  bottom: "slice2367-0"
  top: "mul2368"
  scale_param {
    axis: 0
    bias_term: false
  }
}
layer {
  name: "mul2369"
  type: "Scale"
  bottom: "slice2354-1"
  bottom: "slice2367-1"
  top: "mul2369"
  scale_param {
    axis: 0
    bias_term: false
  }
}
layer {
  name: "add2370"
  type: "Eltwise"
  bottom: "mul2368"
  bottom: "mul2369"
  top: "add2370"
  eltwise_param {
    operation: SUM
  }
}
layer {
  name: "conv2371"
  type: "Convolution"
  bottom: "add2370"
  top: "conv2371"
  convolution_param {
    num_output: 2048
    bias_term: false
    pad: 0
    kernel_size: 1
    stride: 1
  }
}
layer {
  name: "bn2372"
  type: "BatchNorm"
  bottom: "conv2371"
  top: "conv2371"
  batch_norm_param {
    moving_average_fraction: 0.899999976158
    eps: 9.99999974738e-06
  }
}
layer {
  name: "scale2372"
  type: "Scale"
  bottom: "conv2371"
  top: "conv2371"
  scale_param {
    bias_term: true
  }
}
layer {
  name: "add2373"
  type: "Eltwise"
  bottom: "conv2371"
  bottom: "add2346"
  top: "add2373"
  eltwise_param {
    operation: SUM
  }
}
layer {
  name: "relu2374"
  type: "ReLU"
  bottom: "add2373"
  top: "add2373"
}
layer {
  name: "conv2375"
  type: "Convolution"
  bottom: "add2373"
  top: "conv2375"
  convolution_param {
    num_output: 512
    bias_term: false
    pad: 0
    kernel_size: 1
    stride: 1
  }
}
layer {
  name: "bn2376"
  type: "BatchNorm"
  bottom: "conv2375"
  top: "conv2375"
  batch_norm_param {
    moving_average_fraction: 0.899999976158
    eps: 9.99999974738e-06
  }
}
layer {
  name: "scale2376"
  type: "Scale"
  bottom: "conv2375"
  top: "conv2375"
  scale_param {
    bias_term: true
  }
}
layer {
  name: "relu2377"
  type: "ReLU"
  bottom: "conv2375"
  top: "conv2375"
}
layer {
  name: "conv2378"
  type: "Convolution"
  bottom: "conv2375"
  top: "conv2378"
  convolution_param {
    num_output: 1024
    bias_term: false
    pad: 1
    kernel_size: 3
    group: 2
    stride: 1
  }
}
layer {
  name: "bn2379"
  type: "BatchNorm"
  bottom: "conv2378"
  top: "conv2378"
  batch_norm_param {
    moving_average_fraction: 0.899999976158
    eps: 9.99999974738e-06
  }
}
layer {
  name: "scale2379"
  type: "Scale"
  bottom: "conv2378"
  top: "conv2378"
  scale_param {
    bias_term: true
  }
}
layer {
  name: "relu2380"
  type: "ReLU"
  bottom: "conv2378"
  top: "conv2378"
}
layer {
  name: "slice2381"
  type: "Slice"
  bottom: "conv2378"
  top: "slice2381-0"
  top: "slice2381-1"
  slice_param {
    slice_point: 512
    axis: 1
  }
}
layer {
  name: "add2382"
  type: "Eltwise"
  bottom: "slice2381-0"
  bottom: "slice2381-1"
  top: "add2382"
  eltwise_param {
    operation: SUM
  }
}
layer {
  name: "pool2383"
  type: "Pooling"
  bottom: "add2382"
  top: "pool2383"
  pooling_param {
    pool: AVE
    global_pooling: true
  }
}
layer {
  name: "conv2384"
  type: "Convolution"
  bottom: "pool2383"
  top: "conv2384"
  convolution_param {
    num_output: 256
    bias_term: true
    pad: 0
    kernel_size: 1
    stride: 1
  }
}
layer {
  name: "bn2385"
  type: "BatchNorm"
  bottom: "conv2384"
  top: "conv2384"
  batch_norm_param {
    moving_average_fraction: 0.899999976158
    eps: 9.99999974738e-06
  }
}
layer {
  name: "scale2385"
  type: "Scale"
  bottom: "conv2384"
  top: "conv2384"
  scale_param {
    bias_term: true
  }
}
layer {
  name: "relu2386"
  type: "ReLU"
  bottom: "conv2384"
  top: "conv2384"
}
layer {
  name: "conv2387"
  type: "Convolution"
  bottom: "conv2384"
  top: "conv2387"
  convolution_param {
    num_output: 1024
    bias_term: true
    pad: 0
    kernel_size: 1
    stride: 1
  }
}
layer {
  name: "reshape2389"
  type: "Reshape"
  bottom: "conv2387"
  top: "reshape2389"
  reshape_param {
    shape {
      dim: 0
      dim: 1
      dim: 2
      dim: -1
    }
  }
}
layer {
  name: "perm2390"
  type: "Permute"
  bottom: "reshape2389"
  top: "perm2390"
  permute_param {
    order: 0
    order: 2
    order: 1
    order: 3
  }
}
layer {
  name: "softmax2391"
  type: "Softmax"
  bottom: "perm2390"
  top: "softmax2391"
  softmax_param {
    axis: 1
  }
}
layer {
  name: "reshape2393"
  type: "Reshape"
  bottom: "softmax2391"
  top: "reshape2393"
  reshape_param {
    shape {
      dim: 0
      dim: -1
    }
  }
}
layer {
  name: "slice2394"
  type: "Slice"
  bottom: "reshape2393"
  top: "slice2394-0"
  top: "slice2394-1"
  slice_param {
    slice_point: 512
    axis: 1
  }
}
layer {
  name: "mul2395"
  type: "Scale"
  bottom: "slice2381-0"
  bottom: "slice2394-0"
  top: "mul2395"
  scale_param {
    axis: 0
    bias_term: false
  }
}
layer {
  name: "mul2396"
  type: "Scale"
  bottom: "slice2381-1"
  bottom: "slice2394-1"
  top: "mul2396"
  scale_param {
    axis: 0
    bias_term: false
  }
}
layer {
  name: "add2397"
  type: "Eltwise"
  bottom: "mul2395"
  bottom: "mul2396"
  top: "add2397"
  eltwise_param {
    operation: SUM
  }
}
layer {
  name: "conv2398"
  type: "Convolution"
  bottom: "add2397"
  top: "conv2398"
  convolution_param {
    num_output: 2048
    bias_term: false
    pad: 0
    kernel_size: 1
    stride: 1
  }
}
layer {
  name: "bn2399"
  type: "BatchNorm"
  bottom: "conv2398"
  top: "conv2398"
  batch_norm_param {
    moving_average_fraction: 0.899999976158
    eps: 9.99999974738e-06
  }
}
layer {
  name: "scale2399"
  type: "Scale"
  bottom: "conv2398"
  top: "conv2398"
  scale_param {
    bias_term: true
  }
}
layer {
  name: "add2400"
  type: "Eltwise"
  bottom: "conv2398"
  bottom: "add2373"
  top: "add2400"
  eltwise_param {
    operation: SUM
  }
}
layer {
  name: "relu2401"
  type: "ReLU"
  bottom: "add2400"
  top: "add2400"
}
layer {
  name: "conv2402"
  type: "Convolution"
  bottom: "add2400"
  top: "conv2402"
  convolution_param {
    num_output: 512
    bias_term: false
    pad: 0
    kernel_size: 1
    stride: 1
  }
}
layer {
  name: "bn2403"
  type: "BatchNorm"
  bottom: "conv2402"
  top: "conv2402"
  batch_norm_param {
    moving_average_fraction: 0.899999976158
    eps: 9.99999974738e-06
  }
}
layer {
  name: "scale2403"
  type: "Scale"
  bottom: "conv2402"
  top: "conv2402"
  scale_param {
    bias_term: true
  }
}
layer {
  name: "relu2404"
  type: "ReLU"
  bottom: "conv2402"
  top: "conv2402"
}
layer {
  name: "conv2405"
  type: "Convolution"
  bottom: "conv2402"
  top: "conv2405"
  convolution_param {
    num_output: 1024
    bias_term: false
    pad: 1
    kernel_size: 3
    group: 2
    stride: 1
  }
}
layer {
  name: "bn2406"
  type: "BatchNorm"
  bottom: "conv2405"
  top: "conv2405"
  batch_norm_param {
    moving_average_fraction: 0.899999976158
    eps: 9.99999974738e-06
  }
}
layer {
  name: "scale2406"
  type: "Scale"
  bottom: "conv2405"
  top: "conv2405"
  scale_param {
    bias_term: true
  }
}
layer {
  name: "relu2407"
  type: "ReLU"
  bottom: "conv2405"
  top: "conv2405"
}
layer {
  name: "slice2408"
  type: "Slice"
  bottom: "conv2405"
  top: "slice2408-0"
  top: "slice2408-1"
  slice_param {
    slice_point: 512
    axis: 1
  }
}
layer {
  name: "add2409"
  type: "Eltwise"
  bottom: "slice2408-0"
  bottom: "slice2408-1"
  top: "add2409"
  eltwise_param {
    operation: SUM
  }
}
layer {
  name: "pool2410"
  type: "Pooling"
  bottom: "add2409"
  top: "pool2410"
  pooling_param {
    pool: AVE
    global_pooling: true
  }
}
layer {
  name: "conv2411"
  type: "Convolution"
  bottom: "pool2410"
  top: "conv2411"
  convolution_param {
    num_output: 256
    bias_term: true
    pad: 0
    kernel_size: 1
    stride: 1
  }
}
layer {
  name: "bn2412"
  type: "BatchNorm"
  bottom: "conv2411"
  top: "conv2411"
  batch_norm_param {
    moving_average_fraction: 0.899999976158
    eps: 9.99999974738e-06
  }
}
layer {
  name: "scale2412"
  type: "Scale"
  bottom: "conv2411"
  top: "conv2411"
  scale_param {
    bias_term: true
  }
}
layer {
  name: "relu2413"
  type: "ReLU"
  bottom: "conv2411"
  top: "conv2411"
}
layer {
  name: "conv2414"
  type: "Convolution"
  bottom: "conv2411"
  top: "conv2414"
  convolution_param {
    num_output: 1024
    bias_term: true
    pad: 0
    kernel_size: 1
    stride: 1
  }
}
layer {
  name: "reshape2416"
  type: "Reshape"
  bottom: "conv2414"
  top: "reshape2416"
  reshape_param {
    shape {
      dim: 0
      dim: 1
      dim: 2
      dim: -1
    }
  }
}
layer {
  name: "perm2417"
  type: "Permute"
  bottom: "reshape2416"
  top: "perm2417"
  permute_param {
    order: 0
    order: 2
    order: 1
    order: 3
  }
}
layer {
  name: "softmax2418"
  type: "Softmax"
  bottom: "perm2417"
  top: "softmax2418"
  softmax_param {
    axis: 1
  }
}
layer {
  name: "reshape2420"
  type: "Reshape"
  bottom: "softmax2418"
  top: "reshape2420"
  reshape_param {
    shape {
      dim: 0
      dim: -1
    }
  }
}
layer {
  name: "slice2421"
  type: "Slice"
  bottom: "reshape2420"
  top: "slice2421-0"
  top: "slice2421-1"
  slice_param {
    slice_point: 512
    axis: 1
  }
}
layer {
  name: "mul2422"
  type: "Scale"
  bottom: "slice2408-0"
  bottom: "slice2421-0"
  top: "mul2422"
  scale_param {
    axis: 0
    bias_term: false
  }
}
layer {
  name: "mul2423"
  type: "Scale"
  bottom: "slice2408-1"
  bottom: "slice2421-1"
  top: "mul2423"
  scale_param {
    axis: 0
    bias_term: false
  }
}
layer {
  name: "add2424"
  type: "Eltwise"
  bottom: "mul2422"
  bottom: "mul2423"
  top: "add2424"
  eltwise_param {
    operation: SUM
  }
}
layer {
  name: "conv2425"
  type: "Convolution"
  bottom: "add2424"
  top: "conv2425"
  convolution_param {
    num_output: 2048
    bias_term: false
    pad: 0
    kernel_size: 1
    stride: 1
  }
}
layer {
  name: "bn2426"
  type: "BatchNorm"
  bottom: "conv2425"
  top: "conv2425"
  batch_norm_param {
    moving_average_fraction: 0.899999976158
    eps: 9.99999974738e-06
  }
}
layer {
  name: "scale2426"
  type: "Scale"
  bottom: "conv2425"
  top: "conv2425"
  scale_param {
    bias_term: true
  }
}
layer {
  name: "add2427"
  type: "Eltwise"
  bottom: "conv2425"
  bottom: "add2400"
  top: "add2427"
  eltwise_param {
    operation: SUM
  }
}
layer {
  name: "relu2428"
  type: "ReLU"
  bottom: "add2427"
  top: "add2427"
}
layer {
  name: "pool2429"
  type: "Pooling"
  bottom: "add2427"
  top: "pool2429"
  pooling_param {
    pool: AVE
    global_pooling: true
  }
}
layer {
  name: "fc2434"
  type: "InnerProduct"
  bottom: "pool2429"
  top: "fc2434"
  inner_product_param {
    num_output: 1000
    bias_term: true
  }
}
